node {
  name: "BoxPredictor_5/ClassPredictor/act_quant/max"
  op: "Const"
  attr {
    key: "dtype"
    value {
      type: DT_FLOAT
    }
  }
  attr {
    key: "value"
    value {
      tensor {
        dtype: DT_FLOAT
        tensor_shape {
        }
        float_val: 7.98877048
      }
    }
  }
}
node {
  name: "BoxPredictor_5/ClassPredictor/act_quant/max/read"
  op: "Identity"
  input: "BoxPredictor_5/ClassPredictor/act_quant/max"
  attr {
    key: "T"
    value {
      type: DT_FLOAT
    }
  }
  attr {
    key: "_class"
    value {
      list {
        s: "loc:@BoxPredictor_5/ClassPredictor/act_quant/max"
      }
    }
  }
}
node {
  name: "BoxPredictor_5/ClassPredictor/act_quant/min"
  op: "Const"
  attr {
    key: "dtype"
    value {
      type: DT_FLOAT
    }
  }
  attr {
    key: "value"
    value {
      tensor {
        dtype: DT_FLOAT
        tensor_shape {
        }
        float_val: -11.3044291
      }
    }
  }
}
node {
  name: "BoxPredictor_5/ClassPredictor/act_quant/min/read"
  op: "Identity"
  input: "BoxPredictor_5/ClassPredictor/act_quant/min"
  attr {
    key: "T"
    value {
      type: DT_FLOAT
    }
  }
  attr {
    key: "_class"
    value {
      list {
        s: "loc:@BoxPredictor_5/ClassPredictor/act_quant/min"
      }
    }
  }
}
node {
  name: "BoxPredictor_5/ClassPredictor/weights_quant/max"
  op: "Const"
  attr {
    key: "dtype"
    value {
      type: DT_FLOAT
    }
  }
  attr {
    key: "value"
    value {
      tensor {
        dtype: DT_FLOAT
        tensor_shape {
        }
        float_val: 0.127263665
      }
    }
  }
}
node {
  name: "BoxPredictor_5/ClassPredictor/weights_quant/max/read"
  op: "Identity"
  input: "BoxPredictor_5/ClassPredictor/weights_quant/max"
  attr {
    key: "T"
    value {
      type: DT_FLOAT
    }
  }
  attr {
    key: "_class"
    value {
      list {
        s: "loc:@BoxPredictor_5/ClassPredictor/weights_quant/max"
      }
    }
  }
}
node {
  name: "BoxPredictor_5/ClassPredictor/weights_quant/min"
  op: "Const"
  attr {
    key: "dtype"
    value {
      type: DT_FLOAT
    }
  }
  attr {
    key: "value"
    value {
      tensor {
        dtype: DT_FLOAT
        tensor_shape {
        }
        float_val: -0.158929646
      }
    }
  }
}
node {
  name: "BoxPredictor_5/ClassPredictor/weights_quant/min/read"
  op: "Identity"
  input: "BoxPredictor_5/ClassPredictor/weights_quant/min"
  attr {
    key: "T"
    value {
      type: DT_FLOAT
    }
  }
  attr {
    key: "_class"
    value {
      list {
        s: "loc:@BoxPredictor_5/ClassPredictor/weights_quant/min"
      }
    }
  }
}
node {
  name: "BoxPredictor_5/BoxEncodingPredictor/act_quant/max"
  op: "Const"
  attr {
    key: "dtype"
    value {
      type: DT_FLOAT
    }
  }
  attr {
    key: "value"
    value {
      tensor {
        dtype: DT_FLOAT
        tensor_shape {
        }
        float_val: 2.3207283
      }
    }
  }
}
node {
  name: "BoxPredictor_5/BoxEncodingPredictor/act_quant/max/read"
  op: "Identity"
  input: "BoxPredictor_5/BoxEncodingPredictor/act_quant/max"
  attr {
    key: "T"
    value {
      type: DT_FLOAT
    }
  }
  attr {
    key: "_class"
    value {
      list {
        s: "loc:@BoxPredictor_5/BoxEncodingPredictor/act_quant/max"
      }
    }
  }
}
node {
  name: "BoxPredictor_5/BoxEncodingPredictor/act_quant/min"
  op: "Const"
  attr {
    key: "dtype"
    value {
      type: DT_FLOAT
    }
  }
  attr {
    key: "value"
    value {
      tensor {
        dtype: DT_FLOAT
        tensor_shape {
        }
        float_val: -3.17292976
      }
    }
  }
}
node {
  name: "BoxPredictor_5/BoxEncodingPredictor/act_quant/min/read"
  op: "Identity"
  input: "BoxPredictor_5/BoxEncodingPredictor/act_quant/min"
  attr {
    key: "T"
    value {
      type: DT_FLOAT
    }
  }
  attr {
    key: "_class"
    value {
      list {
        s: "loc:@BoxPredictor_5/BoxEncodingPredictor/act_quant/min"
      }
    }
  }
}
node {
  name: "BoxPredictor_5/BoxEncodingPredictor/weights_quant/max"
  op: "Const"
  attr {
    key: "dtype"
    value {
      type: DT_FLOAT
    }
  }
  attr {
    key: "value"
    value {
      tensor {
        dtype: DT_FLOAT
        tensor_shape {
        }
        float_val: 0.115202479
      }
    }
  }
}
node {
  name: "BoxPredictor_5/BoxEncodingPredictor/weights_quant/max/read"
  op: "Identity"
  input: "BoxPredictor_5/BoxEncodingPredictor/weights_quant/max"
  attr {
    key: "T"
    value {
      type: DT_FLOAT
    }
  }
  attr {
    key: "_class"
    value {
      list {
        s: "loc:@BoxPredictor_5/BoxEncodingPredictor/weights_quant/max"
      }
    }
  }
}
node {
  name: "BoxPredictor_5/BoxEncodingPredictor/weights_quant/min"
  op: "Const"
  attr {
    key: "dtype"
    value {
      type: DT_FLOAT
    }
  }
  attr {
    key: "value"
    value {
      tensor {
        dtype: DT_FLOAT
        tensor_shape {
        }
        float_val: -0.0885800719
      }
    }
  }
}
node {
  name: "BoxPredictor_5/BoxEncodingPredictor/weights_quant/min/read"
  op: "Identity"
  input: "BoxPredictor_5/BoxEncodingPredictor/weights_quant/min"
  attr {
    key: "T"
    value {
      type: DT_FLOAT
    }
  }
  attr {
    key: "_class"
    value {
      list {
        s: "loc:@BoxPredictor_5/BoxEncodingPredictor/weights_quant/min"
      }
    }
  }
}
node {
  name: "BoxPredictor_4/ClassPredictor/act_quant/max"
  op: "Const"
  attr {
    key: "dtype"
    value {
      type: DT_FLOAT
    }
  }
  attr {
    key: "value"
    value {
      tensor {
        dtype: DT_FLOAT
        tensor_shape {
        }
        float_val: 16.3065395
      }
    }
  }
}
node {
  name: "BoxPredictor_4/ClassPredictor/act_quant/max/read"
  op: "Identity"
  input: "BoxPredictor_4/ClassPredictor/act_quant/max"
  attr {
    key: "T"
    value {
      type: DT_FLOAT
    }
  }
  attr {
    key: "_class"
    value {
      list {
        s: "loc:@BoxPredictor_4/ClassPredictor/act_quant/max"
      }
    }
  }
}
node {
  name: "BoxPredictor_4/ClassPredictor/act_quant/min"
  op: "Const"
  attr {
    key: "dtype"
    value {
      type: DT_FLOAT
    }
  }
  attr {
    key: "value"
    value {
      tensor {
        dtype: DT_FLOAT
        tensor_shape {
        }
        float_val: -28.6317577
      }
    }
  }
}
node {
  name: "BoxPredictor_4/ClassPredictor/act_quant/min/read"
  op: "Identity"
  input: "BoxPredictor_4/ClassPredictor/act_quant/min"
  attr {
    key: "T"
    value {
      type: DT_FLOAT
    }
  }
  attr {
    key: "_class"
    value {
      list {
        s: "loc:@BoxPredictor_4/ClassPredictor/act_quant/min"
      }
    }
  }
}
node {
  name: "BoxPredictor_4/ClassPredictor/weights_quant/max"
  op: "Const"
  attr {
    key: "dtype"
    value {
      type: DT_FLOAT
    }
  }
  attr {
    key: "value"
    value {
      tensor {
        dtype: DT_FLOAT
        tensor_shape {
        }
        float_val: 0.265034139
      }
    }
  }
}
node {
  name: "BoxPredictor_4/ClassPredictor/weights_quant/max/read"
  op: "Identity"
  input: "BoxPredictor_4/ClassPredictor/weights_quant/max"
  attr {
    key: "T"
    value {
      type: DT_FLOAT
    }
  }
  attr {
    key: "_class"
    value {
      list {
        s: "loc:@BoxPredictor_4/ClassPredictor/weights_quant/max"
      }
    }
  }
}
node {
  name: "BoxPredictor_4/ClassPredictor/weights_quant/min"
  op: "Const"
  attr {
    key: "dtype"
    value {
      type: DT_FLOAT
    }
  }
  attr {
    key: "value"
    value {
      tensor {
        dtype: DT_FLOAT
        tensor_shape {
        }
        float_val: -0.281454742
      }
    }
  }
}
node {
  name: "BoxPredictor_4/ClassPredictor/weights_quant/min/read"
  op: "Identity"
  input: "BoxPredictor_4/ClassPredictor/weights_quant/min"
  attr {
    key: "T"
    value {
      type: DT_FLOAT
    }
  }
  attr {
    key: "_class"
    value {
      list {
        s: "loc:@BoxPredictor_4/ClassPredictor/weights_quant/min"
      }
    }
  }
}
node {
  name: "BoxPredictor_4/BoxEncodingPredictor/act_quant/max"
  op: "Const"
  attr {
    key: "dtype"
    value {
      type: DT_FLOAT
    }
  }
  attr {
    key: "value"
    value {
      tensor {
        dtype: DT_FLOAT
        tensor_shape {
        }
        float_val: 3.20204496
      }
    }
  }
}
node {
  name: "BoxPredictor_4/BoxEncodingPredictor/act_quant/max/read"
  op: "Identity"
  input: "BoxPredictor_4/BoxEncodingPredictor/act_quant/max"
  attr {
    key: "T"
    value {
      type: DT_FLOAT
    }
  }
  attr {
    key: "_class"
    value {
      list {
        s: "loc:@BoxPredictor_4/BoxEncodingPredictor/act_quant/max"
      }
    }
  }
}
node {
  name: "BoxPredictor_4/BoxEncodingPredictor/act_quant/min"
  op: "Const"
  attr {
    key: "dtype"
    value {
      type: DT_FLOAT
    }
  }
  attr {
    key: "value"
    value {
      tensor {
        dtype: DT_FLOAT
        tensor_shape {
        }
        float_val: -5.45022297
      }
    }
  }
}
node {
  name: "BoxPredictor_4/BoxEncodingPredictor/act_quant/min/read"
  op: "Identity"
  input: "BoxPredictor_4/BoxEncodingPredictor/act_quant/min"
  attr {
    key: "T"
    value {
      type: DT_FLOAT
    }
  }
  attr {
    key: "_class"
    value {
      list {
        s: "loc:@BoxPredictor_4/BoxEncodingPredictor/act_quant/min"
      }
    }
  }
}
node {
  name: "BoxPredictor_4/BoxEncodingPredictor/weights_quant/max"
  op: "Const"
  attr {
    key: "dtype"
    value {
      type: DT_FLOAT
    }
  }
  attr {
    key: "value"
    value {
      tensor {
        dtype: DT_FLOAT
        tensor_shape {
        }
        float_val: 0.188132346
      }
    }
  }
}
node {
  name: "BoxPredictor_4/BoxEncodingPredictor/weights_quant/max/read"
  op: "Identity"
  input: "BoxPredictor_4/BoxEncodingPredictor/weights_quant/max"
  attr {
    key: "T"
    value {
      type: DT_FLOAT
    }
  }
  attr {
    key: "_class"
    value {
      list {
        s: "loc:@BoxPredictor_4/BoxEncodingPredictor/weights_quant/max"
      }
    }
  }
}
node {
  name: "BoxPredictor_4/BoxEncodingPredictor/weights_quant/min"
  op: "Const"
  attr {
    key: "dtype"
    value {
      type: DT_FLOAT
    }
  }
  attr {
    key: "value"
    value {
      tensor {
        dtype: DT_FLOAT
        tensor_shape {
        }
        float_val: -0.125973716
      }
    }
  }
}
node {
  name: "BoxPredictor_4/BoxEncodingPredictor/weights_quant/min/read"
  op: "Identity"
  input: "BoxPredictor_4/BoxEncodingPredictor/weights_quant/min"
  attr {
    key: "T"
    value {
      type: DT_FLOAT
    }
  }
  attr {
    key: "_class"
    value {
      list {
        s: "loc:@BoxPredictor_4/BoxEncodingPredictor/weights_quant/min"
      }
    }
  }
}
node {
  name: "BoxPredictor_3/ClassPredictor/act_quant/max"
  op: "Const"
  attr {
    key: "dtype"
    value {
      type: DT_FLOAT
    }
  }
  attr {
    key: "value"
    value {
      tensor {
        dtype: DT_FLOAT
        tensor_shape {
        }
        float_val: 18.149826
      }
    }
  }
}
node {
  name: "BoxPredictor_3/ClassPredictor/act_quant/max/read"
  op: "Identity"
  input: "BoxPredictor_3/ClassPredictor/act_quant/max"
  attr {
    key: "T"
    value {
      type: DT_FLOAT
    }
  }
  attr {
    key: "_class"
    value {
      list {
        s: "loc:@BoxPredictor_3/ClassPredictor/act_quant/max"
      }
    }
  }
}
node {
  name: "BoxPredictor_3/ClassPredictor/act_quant/min"
  op: "Const"
  attr {
    key: "dtype"
    value {
      type: DT_FLOAT
    }
  }
  attr {
    key: "value"
    value {
      tensor {
        dtype: DT_FLOAT
        tensor_shape {
        }
        float_val: -28.6807823
      }
    }
  }
}
node {
  name: "BoxPredictor_3/ClassPredictor/act_quant/min/read"
  op: "Identity"
  input: "BoxPredictor_3/ClassPredictor/act_quant/min"
  attr {
    key: "T"
    value {
      type: DT_FLOAT
    }
  }
  attr {
    key: "_class"
    value {
      list {
        s: "loc:@BoxPredictor_3/ClassPredictor/act_quant/min"
      }
    }
  }
}
node {
  name: "BoxPredictor_3/ClassPredictor/weights_quant/max"
  op: "Const"
  attr {
    key: "dtype"
    value {
      type: DT_FLOAT
    }
  }
  attr {
    key: "value"
    value {
      tensor {
        dtype: DT_FLOAT
        tensor_shape {
        }
        float_val: 0.331412762
      }
    }
  }
}
node {
  name: "BoxPredictor_3/ClassPredictor/weights_quant/max/read"
  op: "Identity"
  input: "BoxPredictor_3/ClassPredictor/weights_quant/max"
  attr {
    key: "T"
    value {
      type: DT_FLOAT
    }
  }
  attr {
    key: "_class"
    value {
      list {
        s: "loc:@BoxPredictor_3/ClassPredictor/weights_quant/max"
      }
    }
  }
}
node {
  name: "BoxPredictor_3/ClassPredictor/weights_quant/min"
  op: "Const"
  attr {
    key: "dtype"
    value {
      type: DT_FLOAT
    }
  }
  attr {
    key: "value"
    value {
      tensor {
        dtype: DT_FLOAT
        tensor_shape {
        }
        float_val: -0.525682569
      }
    }
  }
}
node {
  name: "BoxPredictor_3/ClassPredictor/weights_quant/min/read"
  op: "Identity"
  input: "BoxPredictor_3/ClassPredictor/weights_quant/min"
  attr {
    key: "T"
    value {
      type: DT_FLOAT
    }
  }
  attr {
    key: "_class"
    value {
      list {
        s: "loc:@BoxPredictor_3/ClassPredictor/weights_quant/min"
      }
    }
  }
}
node {
  name: "BoxPredictor_3/BoxEncodingPredictor/act_quant/max"
  op: "Const"
  attr {
    key: "dtype"
    value {
      type: DT_FLOAT
    }
  }
  attr {
    key: "value"
    value {
      tensor {
        dtype: DT_FLOAT
        tensor_shape {
        }
        float_val: 3.2585721
      }
    }
  }
}
node {
  name: "BoxPredictor_3/BoxEncodingPredictor/act_quant/max/read"
  op: "Identity"
  input: "BoxPredictor_3/BoxEncodingPredictor/act_quant/max"
  attr {
    key: "T"
    value {
      type: DT_FLOAT
    }
  }
  attr {
    key: "_class"
    value {
      list {
        s: "loc:@BoxPredictor_3/BoxEncodingPredictor/act_quant/max"
      }
    }
  }
}
node {
  name: "BoxPredictor_3/BoxEncodingPredictor/act_quant/min"
  op: "Const"
  attr {
    key: "dtype"
    value {
      type: DT_FLOAT
    }
  }
  attr {
    key: "value"
    value {
      tensor {
        dtype: DT_FLOAT
        tensor_shape {
        }
        float_val: -3.75663018
      }
    }
  }
}
node {
  name: "BoxPredictor_3/BoxEncodingPredictor/act_quant/min/read"
  op: "Identity"
  input: "BoxPredictor_3/BoxEncodingPredictor/act_quant/min"
  attr {
    key: "T"
    value {
      type: DT_FLOAT
    }
  }
  attr {
    key: "_class"
    value {
      list {
        s: "loc:@BoxPredictor_3/BoxEncodingPredictor/act_quant/min"
      }
    }
  }
}
node {
  name: "BoxPredictor_3/BoxEncodingPredictor/weights_quant/max"
  op: "Const"
  attr {
    key: "dtype"
    value {
      type: DT_FLOAT
    }
  }
  attr {
    key: "value"
    value {
      tensor {
        dtype: DT_FLOAT
        tensor_shape {
        }
        float_val: 0.334999084
      }
    }
  }
}
node {
  name: "BoxPredictor_3/BoxEncodingPredictor/weights_quant/max/read"
  op: "Identity"
  input: "BoxPredictor_3/BoxEncodingPredictor/weights_quant/max"
  attr {
    key: "T"
    value {
      type: DT_FLOAT
    }
  }
  attr {
    key: "_class"
    value {
      list {
        s: "loc:@BoxPredictor_3/BoxEncodingPredictor/weights_quant/max"
      }
    }
  }
}
node {
  name: "BoxPredictor_3/BoxEncodingPredictor/weights_quant/min"
  op: "Const"
  attr {
    key: "dtype"
    value {
      type: DT_FLOAT
    }
  }
  attr {
    key: "value"
    value {
      tensor {
        dtype: DT_FLOAT
        tensor_shape {
        }
        float_val: -0.316175818
      }
    }
  }
}
node {
  name: "BoxPredictor_3/BoxEncodingPredictor/weights_quant/min/read"
  op: "Identity"
  input: "BoxPredictor_3/BoxEncodingPredictor/weights_quant/min"
  attr {
    key: "T"
    value {
      type: DT_FLOAT
    }
  }
  attr {
    key: "_class"
    value {
      list {
        s: "loc:@BoxPredictor_3/BoxEncodingPredictor/weights_quant/min"
      }
    }
  }
}
node {
  name: "BoxPredictor_2/ClassPredictor/act_quant/max"
  op: "Const"
  attr {
    key: "dtype"
    value {
      type: DT_FLOAT
    }
  }
  attr {
    key: "value"
    value {
      tensor {
        dtype: DT_FLOAT
        tensor_shape {
        }
        float_val: 30.4113274
      }
    }
  }
}
node {
  name: "BoxPredictor_2/ClassPredictor/act_quant/max/read"
  op: "Identity"
  input: "BoxPredictor_2/ClassPredictor/act_quant/max"
  attr {
    key: "T"
    value {
      type: DT_FLOAT
    }
  }
  attr {
    key: "_class"
    value {
      list {
        s: "loc:@BoxPredictor_2/ClassPredictor/act_quant/max"
      }
    }
  }
}
node {
  name: "BoxPredictor_2/ClassPredictor/act_quant/min"
  op: "Const"
  attr {
    key: "dtype"
    value {
      type: DT_FLOAT
    }
  }
  attr {
    key: "value"
    value {
      tensor {
        dtype: DT_FLOAT
        tensor_shape {
        }
        float_val: -42.4639893
      }
    }
  }
}
node {
  name: "BoxPredictor_2/ClassPredictor/act_quant/min/read"
  op: "Identity"
  input: "BoxPredictor_2/ClassPredictor/act_quant/min"
  attr {
    key: "T"
    value {
      type: DT_FLOAT
    }
  }
  attr {
    key: "_class"
    value {
      list {
        s: "loc:@BoxPredictor_2/ClassPredictor/act_quant/min"
      }
    }
  }
}
node {
  name: "BoxPredictor_2/ClassPredictor/weights_quant/max"
  op: "Const"
  attr {
    key: "dtype"
    value {
      type: DT_FLOAT
    }
  }
  attr {
    key: "value"
    value {
      tensor {
        dtype: DT_FLOAT
        tensor_shape {
        }
        float_val: 0.494805455
      }
    }
  }
}
node {
  name: "BoxPredictor_2/ClassPredictor/weights_quant/max/read"
  op: "Identity"
  input: "BoxPredictor_2/ClassPredictor/weights_quant/max"
  attr {
    key: "T"
    value {
      type: DT_FLOAT
    }
  }
  attr {
    key: "_class"
    value {
      list {
        s: "loc:@BoxPredictor_2/ClassPredictor/weights_quant/max"
      }
    }
  }
}
node {
  name: "BoxPredictor_2/ClassPredictor/weights_quant/min"
  op: "Const"
  attr {
    key: "dtype"
    value {
      type: DT_FLOAT
    }
  }
  attr {
    key: "value"
    value {
      tensor {
        dtype: DT_FLOAT
        tensor_shape {
        }
        float_val: -0.517870605
      }
    }
  }
}
node {
  name: "BoxPredictor_2/ClassPredictor/weights_quant/min/read"
  op: "Identity"
  input: "BoxPredictor_2/ClassPredictor/weights_quant/min"
  attr {
    key: "T"
    value {
      type: DT_FLOAT
    }
  }
  attr {
    key: "_class"
    value {
      list {
        s: "loc:@BoxPredictor_2/ClassPredictor/weights_quant/min"
      }
    }
  }
}
node {
  name: "BoxPredictor_2/BoxEncodingPredictor/act_quant/max"
  op: "Const"
  attr {
    key: "dtype"
    value {
      type: DT_FLOAT
    }
  }
  attr {
    key: "value"
    value {
      tensor {
        dtype: DT_FLOAT
        tensor_shape {
        }
        float_val: 4.5677247
      }
    }
  }
}
node {
  name: "BoxPredictor_2/BoxEncodingPredictor/act_quant/max/read"
  op: "Identity"
  input: "BoxPredictor_2/BoxEncodingPredictor/act_quant/max"
  attr {
    key: "T"
    value {
      type: DT_FLOAT
    }
  }
  attr {
    key: "_class"
    value {
      list {
        s: "loc:@BoxPredictor_2/BoxEncodingPredictor/act_quant/max"
      }
    }
  }
}
node {
  name: "BoxPredictor_2/BoxEncodingPredictor/act_quant/min"
  op: "Const"
  attr {
    key: "dtype"
    value {
      type: DT_FLOAT
    }
  }
  attr {
    key: "value"
    value {
      tensor {
        dtype: DT_FLOAT
        tensor_shape {
        }
        float_val: -6.82158947
      }
    }
  }
}
node {
  name: "BoxPredictor_2/BoxEncodingPredictor/act_quant/min/read"
  op: "Identity"
  input: "BoxPredictor_2/BoxEncodingPredictor/act_quant/min"
  attr {
    key: "T"
    value {
      type: DT_FLOAT
    }
  }
  attr {
    key: "_class"
    value {
      list {
        s: "loc:@BoxPredictor_2/BoxEncodingPredictor/act_quant/min"
      }
    }
  }
}
node {
  name: "BoxPredictor_2/BoxEncodingPredictor/weights_quant/max"
  op: "Const"
  attr {
    key: "dtype"
    value {
      type: DT_FLOAT
    }
  }
  attr {
    key: "value"
    value {
      tensor {
        dtype: DT_FLOAT
        tensor_shape {
        }
        float_val: 0.306844473
      }
    }
  }
}
node {
  name: "BoxPredictor_2/BoxEncodingPredictor/weights_quant/max/read"
  op: "Identity"
  input: "BoxPredictor_2/BoxEncodingPredictor/weights_quant/max"
  attr {
    key: "T"
    value {
      type: DT_FLOAT
    }
  }
  attr {
    key: "_class"
    value {
      list {
        s: "loc:@BoxPredictor_2/BoxEncodingPredictor/weights_quant/max"
      }
    }
  }
}
node {
  name: "BoxPredictor_2/BoxEncodingPredictor/weights_quant/min"
  op: "Const"
  attr {
    key: "dtype"
    value {
      type: DT_FLOAT
    }
  }
  attr {
    key: "value"
    value {
      tensor {
        dtype: DT_FLOAT
        tensor_shape {
        }
        float_val: -0.227374777
      }
    }
  }
}
node {
  name: "BoxPredictor_2/BoxEncodingPredictor/weights_quant/min/read"
  op: "Identity"
  input: "BoxPredictor_2/BoxEncodingPredictor/weights_quant/min"
  attr {
    key: "T"
    value {
      type: DT_FLOAT
    }
  }
  attr {
    key: "_class"
    value {
      list {
        s: "loc:@BoxPredictor_2/BoxEncodingPredictor/weights_quant/min"
      }
    }
  }
}
node {
  name: "BoxPredictor_1/ClassPredictor/act_quant/max"
  op: "Const"
  attr {
    key: "dtype"
    value {
      type: DT_FLOAT
    }
  }
  attr {
    key: "value"
    value {
      tensor {
        dtype: DT_FLOAT
        tensor_shape {
        }
        float_val: 50.4838676
      }
    }
  }
}
node {
  name: "BoxPredictor_1/ClassPredictor/act_quant/max/read"
  op: "Identity"
  input: "BoxPredictor_1/ClassPredictor/act_quant/max"
  attr {
    key: "T"
    value {
      type: DT_FLOAT
    }
  }
  attr {
    key: "_class"
    value {
      list {
        s: "loc:@BoxPredictor_1/ClassPredictor/act_quant/max"
      }
    }
  }
}
node {
  name: "BoxPredictor_1/ClassPredictor/act_quant/min"
  op: "Const"
  attr {
    key: "dtype"
    value {
      type: DT_FLOAT
    }
  }
  attr {
    key: "value"
    value {
      tensor {
        dtype: DT_FLOAT
        tensor_shape {
        }
        float_val: -72.4606323
      }
    }
  }
}
node {
  name: "BoxPredictor_1/ClassPredictor/act_quant/min/read"
  op: "Identity"
  input: "BoxPredictor_1/ClassPredictor/act_quant/min"
  attr {
    key: "T"
    value {
      type: DT_FLOAT
    }
  }
  attr {
    key: "_class"
    value {
      list {
        s: "loc:@BoxPredictor_1/ClassPredictor/act_quant/min"
      }
    }
  }
}
node {
  name: "BoxPredictor_1/ClassPredictor/weights_quant/max"
  op: "Const"
  attr {
    key: "dtype"
    value {
      type: DT_FLOAT
    }
  }
  attr {
    key: "value"
    value {
      tensor {
        dtype: DT_FLOAT
        tensor_shape {
        }
        float_val: 0.478542447
      }
    }
  }
}
node {
  name: "BoxPredictor_1/ClassPredictor/weights_quant/max/read"
  op: "Identity"
  input: "BoxPredictor_1/ClassPredictor/weights_quant/max"
  attr {
    key: "T"
    value {
      type: DT_FLOAT
    }
  }
  attr {
    key: "_class"
    value {
      list {
        s: "loc:@BoxPredictor_1/ClassPredictor/weights_quant/max"
      }
    }
  }
}
node {
  name: "BoxPredictor_1/ClassPredictor/weights_quant/min"
  op: "Const"
  attr {
    key: "dtype"
    value {
      type: DT_FLOAT
    }
  }
  attr {
    key: "value"
    value {
      tensor {
        dtype: DT_FLOAT
        tensor_shape {
        }
        float_val: -0.606784821
      }
    }
  }
}
node {
  name: "BoxPredictor_1/ClassPredictor/weights_quant/min/read"
  op: "Identity"
  input: "BoxPredictor_1/ClassPredictor/weights_quant/min"
  attr {
    key: "T"
    value {
      type: DT_FLOAT
    }
  }
  attr {
    key: "_class"
    value {
      list {
        s: "loc:@BoxPredictor_1/ClassPredictor/weights_quant/min"
      }
    }
  }
}
node {
  name: "BoxPredictor_1/BoxEncodingPredictor/act_quant/max"
  op: "Const"
  attr {
    key: "dtype"
    value {
      type: DT_FLOAT
    }
  }
  attr {
    key: "value"
    value {
      tensor {
        dtype: DT_FLOAT
        tensor_shape {
        }
        float_val: 5.22341824
      }
    }
  }
}
node {
  name: "BoxPredictor_1/BoxEncodingPredictor/act_quant/max/read"
  op: "Identity"
  input: "BoxPredictor_1/BoxEncodingPredictor/act_quant/max"
  attr {
    key: "T"
    value {
      type: DT_FLOAT
    }
  }
  attr {
    key: "_class"
    value {
      list {
        s: "loc:@BoxPredictor_1/BoxEncodingPredictor/act_quant/max"
      }
    }
  }
}
node {
  name: "BoxPredictor_1/BoxEncodingPredictor/act_quant/min"
  op: "Const"
  attr {
    key: "dtype"
    value {
      type: DT_FLOAT
    }
  }
  attr {
    key: "value"
    value {
      tensor {
        dtype: DT_FLOAT
        tensor_shape {
        }
        float_val: -9.97846889
      }
    }
  }
}
node {
  name: "BoxPredictor_1/BoxEncodingPredictor/act_quant/min/read"
  op: "Identity"
  input: "BoxPredictor_1/BoxEncodingPredictor/act_quant/min"
  attr {
    key: "T"
    value {
      type: DT_FLOAT
    }
  }
  attr {
    key: "_class"
    value {
      list {
        s: "loc:@BoxPredictor_1/BoxEncodingPredictor/act_quant/min"
      }
    }
  }
}
node {
  name: "BoxPredictor_1/BoxEncodingPredictor/weights_quant/max"
  op: "Const"
  attr {
    key: "dtype"
    value {
      type: DT_FLOAT
    }
  }
  attr {
    key: "value"
    value {
      tensor {
        dtype: DT_FLOAT
        tensor_shape {
        }
        float_val: 0.504331946
      }
    }
  }
}
node {
  name: "BoxPredictor_1/BoxEncodingPredictor/weights_quant/max/read"
  op: "Identity"
  input: "BoxPredictor_1/BoxEncodingPredictor/weights_quant/max"
  attr {
    key: "T"
    value {
      type: DT_FLOAT
    }
  }
  attr {
    key: "_class"
    value {
      list {
        s: "loc:@BoxPredictor_1/BoxEncodingPredictor/weights_quant/max"
      }
    }
  }
}
node {
  name: "BoxPredictor_1/BoxEncodingPredictor/weights_quant/min"
  op: "Const"
  attr {
    key: "dtype"
    value {
      type: DT_FLOAT
    }
  }
  attr {
    key: "value"
    value {
      tensor {
        dtype: DT_FLOAT
        tensor_shape {
        }
        float_val: -0.395473927
      }
    }
  }
}
node {
  name: "BoxPredictor_1/BoxEncodingPredictor/weights_quant/min/read"
  op: "Identity"
  input: "BoxPredictor_1/BoxEncodingPredictor/weights_quant/min"
  attr {
    key: "T"
    value {
      type: DT_FLOAT
    }
  }
  attr {
    key: "_class"
    value {
      list {
        s: "loc:@BoxPredictor_1/BoxEncodingPredictor/weights_quant/min"
      }
    }
  }
}
node {
  name: "BoxPredictor_0/ClassPredictor/act_quant/max"
  op: "Const"
  attr {
    key: "dtype"
    value {
      type: DT_FLOAT
    }
  }
  attr {
    key: "value"
    value {
      tensor {
        dtype: DT_FLOAT
        tensor_shape {
        }
        float_val: 19.182827
      }
    }
  }
}
node {
  name: "BoxPredictor_0/ClassPredictor/act_quant/max/read"
  op: "Identity"
  input: "BoxPredictor_0/ClassPredictor/act_quant/max"
  attr {
    key: "T"
    value {
      type: DT_FLOAT
    }
  }
  attr {
    key: "_class"
    value {
      list {
        s: "loc:@BoxPredictor_0/ClassPredictor/act_quant/max"
      }
    }
  }
}
node {
  name: "BoxPredictor_0/ClassPredictor/act_quant/min"
  op: "Const"
  attr {
    key: "dtype"
    value {
      type: DT_FLOAT
    }
  }
  attr {
    key: "value"
    value {
      tensor {
        dtype: DT_FLOAT
        tensor_shape {
        }
        float_val: -28.7575302
      }
    }
  }
}
node {
  name: "BoxPredictor_0/ClassPredictor/act_quant/min/read"
  op: "Identity"
  input: "BoxPredictor_0/ClassPredictor/act_quant/min"
  attr {
    key: "T"
    value {
      type: DT_FLOAT
    }
  }
  attr {
    key: "_class"
    value {
      list {
        s: "loc:@BoxPredictor_0/ClassPredictor/act_quant/min"
      }
    }
  }
}
node {
  name: "BoxPredictor_0/ClassPredictor/weights_quant/max"
  op: "Const"
  attr {
    key: "dtype"
    value {
      type: DT_FLOAT
    }
  }
  attr {
    key: "value"
    value {
      tensor {
        dtype: DT_FLOAT
        tensor_shape {
        }
        float_val: 0.809465826
      }
    }
  }
}
node {
  name: "BoxPredictor_0/ClassPredictor/weights_quant/max/read"
  op: "Identity"
  input: "BoxPredictor_0/ClassPredictor/weights_quant/max"
  attr {
    key: "T"
    value {
      type: DT_FLOAT
    }
  }
  attr {
    key: "_class"
    value {
      list {
        s: "loc:@BoxPredictor_0/ClassPredictor/weights_quant/max"
      }
    }
  }
}
node {
  name: "BoxPredictor_0/ClassPredictor/weights_quant/min"
  op: "Const"
  attr {
    key: "dtype"
    value {
      type: DT_FLOAT
    }
  }
  attr {
    key: "value"
    value {
      tensor {
        dtype: DT_FLOAT
        tensor_shape {
        }
        float_val: -1.40109158
      }
    }
  }
}
node {
  name: "BoxPredictor_0/ClassPredictor/weights_quant/min/read"
  op: "Identity"
  input: "BoxPredictor_0/ClassPredictor/weights_quant/min"
  attr {
    key: "T"
    value {
      type: DT_FLOAT
    }
  }
  attr {
    key: "_class"
    value {
      list {
        s: "loc:@BoxPredictor_0/ClassPredictor/weights_quant/min"
      }
    }
  }
}
node {
  name: "BoxPredictor_0/BoxEncodingPredictor/act_quant/max"
  op: "Const"
  attr {
    key: "dtype"
    value {
      type: DT_FLOAT
    }
  }
  attr {
    key: "value"
    value {
      tensor {
        dtype: DT_FLOAT
        tensor_shape {
        }
        float_val: 7.47652578
      }
    }
  }
}
node {
  name: "BoxPredictor_0/BoxEncodingPredictor/act_quant/max/read"
  op: "Identity"
  input: "BoxPredictor_0/BoxEncodingPredictor/act_quant/max"
  attr {
    key: "T"
    value {
      type: DT_FLOAT
    }
  }
  attr {
    key: "_class"
    value {
      list {
        s: "loc:@BoxPredictor_0/BoxEncodingPredictor/act_quant/max"
      }
    }
  }
}
node {
  name: "BoxPredictor_0/BoxEncodingPredictor/act_quant/min"
  op: "Const"
  attr {
    key: "dtype"
    value {
      type: DT_FLOAT
    }
  }
  attr {
    key: "value"
    value {
      tensor {
        dtype: DT_FLOAT
        tensor_shape {
        }
        float_val: -17.3953838
      }
    }
  }
}
node {
  name: "BoxPredictor_0/BoxEncodingPredictor/act_quant/min/read"
  op: "Identity"
  input: "BoxPredictor_0/BoxEncodingPredictor/act_quant/min"
  attr {
    key: "T"
    value {
      type: DT_FLOAT
    }
  }
  attr {
    key: "_class"
    value {
      list {
        s: "loc:@BoxPredictor_0/BoxEncodingPredictor/act_quant/min"
      }
    }
  }
}
node {
  name: "BoxPredictor_0/BoxEncodingPredictor/weights_quant/max"
  op: "Const"
  attr {
    key: "dtype"
    value {
      type: DT_FLOAT
    }
  }
  attr {
    key: "value"
    value {
      tensor {
        dtype: DT_FLOAT
        tensor_shape {
        }
        float_val: 1.0903523
      }
    }
  }
}
node {
  name: "BoxPredictor_0/BoxEncodingPredictor/weights_quant/max/read"
  op: "Identity"
  input: "BoxPredictor_0/BoxEncodingPredictor/weights_quant/max"
  attr {
    key: "T"
    value {
      type: DT_FLOAT
    }
  }
  attr {
    key: "_class"
    value {
      list {
        s: "loc:@BoxPredictor_0/BoxEncodingPredictor/weights_quant/max"
      }
    }
  }
}
node {
  name: "BoxPredictor_0/BoxEncodingPredictor/weights_quant/min"
  op: "Const"
  attr {
    key: "dtype"
    value {
      type: DT_FLOAT
    }
  }
  attr {
    key: "value"
    value {
      tensor {
        dtype: DT_FLOAT
        tensor_shape {
        }
        float_val: -1.10995245
      }
    }
  }
}
node {
  name: "BoxPredictor_0/BoxEncodingPredictor/weights_quant/min/read"
  op: "Identity"
  input: "BoxPredictor_0/BoxEncodingPredictor/weights_quant/min"
  attr {
    key: "T"
    value {
      type: DT_FLOAT
    }
  }
  attr {
    key: "_class"
    value {
      list {
        s: "loc:@BoxPredictor_0/BoxEncodingPredictor/weights_quant/min"
      }
    }
  }
}
node {
  name: "FeatureExtractor/MobilenetV2/layer_19_2_Conv2d_5_3x3_s2_128/act_quant/max"
  op: "Const"
  attr {
    key: "dtype"
    value {
      type: DT_FLOAT
    }
  }
  attr {
    key: "value"
    value {
      tensor {
        dtype: DT_FLOAT
        tensor_shape {
        }
        float_val: 5.99976158
      }
    }
  }
}
node {
  name: "FeatureExtractor/MobilenetV2/layer_19_2_Conv2d_5_3x3_s2_128/act_quant/max/read"
  op: "Identity"
  input: "FeatureExtractor/MobilenetV2/layer_19_2_Conv2d_5_3x3_s2_128/act_quant/max"
  attr {
    key: "T"
    value {
      type: DT_FLOAT
    }
  }
  attr {
    key: "_class"
    value {
      list {
        s: "loc:@FeatureExtractor/MobilenetV2/layer_19_2_Conv2d_5_3x3_s2_128/act_quant/max"
      }
    }
  }
}
node {
  name: "FeatureExtractor/MobilenetV2/layer_19_2_Conv2d_5_3x3_s2_128/act_quant/min"
  op: "Const"
  attr {
    key: "dtype"
    value {
      type: DT_FLOAT
    }
  }
  attr {
    key: "value"
    value {
      tensor {
        dtype: DT_FLOAT
        tensor_shape {
        }
        float_val: 0
      }
    }
  }
}
node {
  name: "FeatureExtractor/MobilenetV2/layer_19_2_Conv2d_5_3x3_s2_128/act_quant/min/read"
  op: "Identity"
  input: "FeatureExtractor/MobilenetV2/layer_19_2_Conv2d_5_3x3_s2_128/act_quant/min"
  attr {
    key: "T"
    value {
      type: DT_FLOAT
    }
  }
  attr {
    key: "_class"
    value {
      list {
        s: "loc:@FeatureExtractor/MobilenetV2/layer_19_2_Conv2d_5_3x3_s2_128/act_quant/min"
      }
    }
  }
}
node {
  name: "FeatureExtractor/MobilenetV2/layer_19_2_Conv2d_5_3x3_s2_128/weights_quant/max"
  op: "Const"
  attr {
    key: "dtype"
    value {
      type: DT_FLOAT
    }
  }
  attr {
    key: "value"
    value {
      tensor {
        dtype: DT_FLOAT
        tensor_shape {
        }
        float_val: 1.6890353
      }
    }
  }
}
node {
  name: "FeatureExtractor/MobilenetV2/layer_19_2_Conv2d_5_3x3_s2_128/weights_quant/max/read"
  op: "Identity"
  input: "FeatureExtractor/MobilenetV2/layer_19_2_Conv2d_5_3x3_s2_128/weights_quant/max"
  attr {
    key: "T"
    value {
      type: DT_FLOAT
    }
  }
  attr {
    key: "_class"
    value {
      list {
        s: "loc:@FeatureExtractor/MobilenetV2/layer_19_2_Conv2d_5_3x3_s2_128/weights_quant/max"
      }
    }
  }
}
node {
  name: "FeatureExtractor/MobilenetV2/layer_19_2_Conv2d_5_3x3_s2_128/weights_quant/min"
  op: "Const"
  attr {
    key: "dtype"
    value {
      type: DT_FLOAT
    }
  }
  attr {
    key: "value"
    value {
      tensor {
        dtype: DT_FLOAT
        tensor_shape {
        }
        float_val: -1.37090731
      }
    }
  }
}
node {
  name: "FeatureExtractor/MobilenetV2/layer_19_2_Conv2d_5_3x3_s2_128/weights_quant/min/read"
  op: "Identity"
  input: "FeatureExtractor/MobilenetV2/layer_19_2_Conv2d_5_3x3_s2_128/weights_quant/min"
  attr {
    key: "T"
    value {
      type: DT_FLOAT
    }
  }
  attr {
    key: "_class"
    value {
      list {
        s: "loc:@FeatureExtractor/MobilenetV2/layer_19_2_Conv2d_5_3x3_s2_128/weights_quant/min"
      }
    }
  }
}
node {
  name: "FeatureExtractor/MobilenetV2/layer_19_1_Conv2d_5_1x1_64/act_quant/max"
  op: "Const"
  attr {
    key: "dtype"
    value {
      type: DT_FLOAT
    }
  }
  attr {
    key: "value"
    value {
      tensor {
        dtype: DT_FLOAT
        tensor_shape {
        }
        float_val: 5.88909483
      }
    }
  }
}
node {
  name: "FeatureExtractor/MobilenetV2/layer_19_1_Conv2d_5_1x1_64/act_quant/max/read"
  op: "Identity"
  input: "FeatureExtractor/MobilenetV2/layer_19_1_Conv2d_5_1x1_64/act_quant/max"
  attr {
    key: "T"
    value {
      type: DT_FLOAT
    }
  }
  attr {
    key: "_class"
    value {
      list {
        s: "loc:@FeatureExtractor/MobilenetV2/layer_19_1_Conv2d_5_1x1_64/act_quant/max"
      }
    }
  }
}
node {
  name: "FeatureExtractor/MobilenetV2/layer_19_1_Conv2d_5_1x1_64/act_quant/min"
  op: "Const"
  attr {
    key: "dtype"
    value {
      type: DT_FLOAT
    }
  }
  attr {
    key: "value"
    value {
      tensor {
        dtype: DT_FLOAT
        tensor_shape {
        }
        float_val: 0
      }
    }
  }
}
node {
  name: "FeatureExtractor/MobilenetV2/layer_19_1_Conv2d_5_1x1_64/act_quant/min/read"
  op: "Identity"
  input: "FeatureExtractor/MobilenetV2/layer_19_1_Conv2d_5_1x1_64/act_quant/min"
  attr {
    key: "T"
    value {
      type: DT_FLOAT
    }
  }
  attr {
    key: "_class"
    value {
      list {
        s: "loc:@FeatureExtractor/MobilenetV2/layer_19_1_Conv2d_5_1x1_64/act_quant/min"
      }
    }
  }
}
node {
  name: "FeatureExtractor/MobilenetV2/layer_19_1_Conv2d_5_1x1_64/weights_quant/max"
  op: "Const"
  attr {
    key: "dtype"
    value {
      type: DT_FLOAT
    }
  }
  attr {
    key: "value"
    value {
      tensor {
        dtype: DT_FLOAT
        tensor_shape {
        }
        float_val: 1.30043876
      }
    }
  }
}
node {
  name: "FeatureExtractor/MobilenetV2/layer_19_1_Conv2d_5_1x1_64/weights_quant/max/read"
  op: "Identity"
  input: "FeatureExtractor/MobilenetV2/layer_19_1_Conv2d_5_1x1_64/weights_quant/max"
  attr {
    key: "T"
    value {
      type: DT_FLOAT
    }
  }
  attr {
    key: "_class"
    value {
      list {
        s: "loc:@FeatureExtractor/MobilenetV2/layer_19_1_Conv2d_5_1x1_64/weights_quant/max"
      }
    }
  }
}
node {
  name: "FeatureExtractor/MobilenetV2/layer_19_1_Conv2d_5_1x1_64/weights_quant/min"
  op: "Const"
  attr {
    key: "dtype"
    value {
      type: DT_FLOAT
    }
  }
  attr {
    key: "value"
    value {
      tensor {
        dtype: DT_FLOAT
        tensor_shape {
        }
        float_val: -0.661707
      }
    }
  }
}
node {
  name: "FeatureExtractor/MobilenetV2/layer_19_1_Conv2d_5_1x1_64/weights_quant/min/read"
  op: "Identity"
  input: "FeatureExtractor/MobilenetV2/layer_19_1_Conv2d_5_1x1_64/weights_quant/min"
  attr {
    key: "T"
    value {
      type: DT_FLOAT
    }
  }
  attr {
    key: "_class"
    value {
      list {
        s: "loc:@FeatureExtractor/MobilenetV2/layer_19_1_Conv2d_5_1x1_64/weights_quant/min"
      }
    }
  }
}
node {
  name: "FeatureExtractor/MobilenetV2/layer_19_2_Conv2d_4_3x3_s2_256/act_quant/max"
  op: "Const"
  attr {
    key: "dtype"
    value {
      type: DT_FLOAT
    }
  }
  attr {
    key: "value"
    value {
      tensor {
        dtype: DT_FLOAT
        tensor_shape {
        }
        float_val: 5.99976158
      }
    }
  }
}
node {
  name: "FeatureExtractor/MobilenetV2/layer_19_2_Conv2d_4_3x3_s2_256/act_quant/max/read"
  op: "Identity"
  input: "FeatureExtractor/MobilenetV2/layer_19_2_Conv2d_4_3x3_s2_256/act_quant/max"
  attr {
    key: "T"
    value {
      type: DT_FLOAT
    }
  }
  attr {
    key: "_class"
    value {
      list {
        s: "loc:@FeatureExtractor/MobilenetV2/layer_19_2_Conv2d_4_3x3_s2_256/act_quant/max"
      }
    }
  }
}
node {
  name: "FeatureExtractor/MobilenetV2/layer_19_2_Conv2d_4_3x3_s2_256/act_quant/min"
  op: "Const"
  attr {
    key: "dtype"
    value {
      type: DT_FLOAT
    }
  }
  attr {
    key: "value"
    value {
      tensor {
        dtype: DT_FLOAT
        tensor_shape {
        }
        float_val: 0
      }
    }
  }
}
node {
  name: "FeatureExtractor/MobilenetV2/layer_19_2_Conv2d_4_3x3_s2_256/act_quant/min/read"
  op: "Identity"
  input: "FeatureExtractor/MobilenetV2/layer_19_2_Conv2d_4_3x3_s2_256/act_quant/min"
  attr {
    key: "T"
    value {
      type: DT_FLOAT
    }
  }
  attr {
    key: "_class"
    value {
      list {
        s: "loc:@FeatureExtractor/MobilenetV2/layer_19_2_Conv2d_4_3x3_s2_256/act_quant/min"
      }
    }
  }
}
node {
  name: "FeatureExtractor/MobilenetV2/layer_19_2_Conv2d_4_3x3_s2_256/weights_quant/max"
  op: "Const"
  attr {
    key: "dtype"
    value {
      type: DT_FLOAT
    }
  }
  attr {
    key: "value"
    value {
      tensor {
        dtype: DT_FLOAT
        tensor_shape {
        }
        float_val: 0.834736049
      }
    }
  }
}
node {
  name: "FeatureExtractor/MobilenetV2/layer_19_2_Conv2d_4_3x3_s2_256/weights_quant/max/read"
  op: "Identity"
  input: "FeatureExtractor/MobilenetV2/layer_19_2_Conv2d_4_3x3_s2_256/weights_quant/max"
  attr {
    key: "T"
    value {
      type: DT_FLOAT
    }
  }
  attr {
    key: "_class"
    value {
      list {
        s: "loc:@FeatureExtractor/MobilenetV2/layer_19_2_Conv2d_4_3x3_s2_256/weights_quant/max"
      }
    }
  }
}
node {
  name: "FeatureExtractor/MobilenetV2/layer_19_2_Conv2d_4_3x3_s2_256/weights_quant/min"
  op: "Const"
  attr {
    key: "dtype"
    value {
      type: DT_FLOAT
    }
  }
  attr {
    key: "value"
    value {
      tensor {
        dtype: DT_FLOAT
        tensor_shape {
        }
        float_val: -0.965981364
      }
    }
  }
}
node {
  name: "FeatureExtractor/MobilenetV2/layer_19_2_Conv2d_4_3x3_s2_256/weights_quant/min/read"
  op: "Identity"
  input: "FeatureExtractor/MobilenetV2/layer_19_2_Conv2d_4_3x3_s2_256/weights_quant/min"
  attr {
    key: "T"
    value {
      type: DT_FLOAT
    }
  }
  attr {
    key: "_class"
    value {
      list {
        s: "loc:@FeatureExtractor/MobilenetV2/layer_19_2_Conv2d_4_3x3_s2_256/weights_quant/min"
      }
    }
  }
}
node {
  name: "FeatureExtractor/MobilenetV2/layer_19_1_Conv2d_4_1x1_128/act_quant/max"
  op: "Const"
  attr {
    key: "dtype"
    value {
      type: DT_FLOAT
    }
  }
  attr {
    key: "value"
    value {
      tensor {
        dtype: DT_FLOAT
        tensor_shape {
        }
        float_val: 5.770679
      }
    }
  }
}
node {
  name: "FeatureExtractor/MobilenetV2/layer_19_1_Conv2d_4_1x1_128/act_quant/max/read"
  op: "Identity"
  input: "FeatureExtractor/MobilenetV2/layer_19_1_Conv2d_4_1x1_128/act_quant/max"
  attr {
    key: "T"
    value {
      type: DT_FLOAT
    }
  }
  attr {
    key: "_class"
    value {
      list {
        s: "loc:@FeatureExtractor/MobilenetV2/layer_19_1_Conv2d_4_1x1_128/act_quant/max"
      }
    }
  }
}
node {
  name: "FeatureExtractor/MobilenetV2/layer_19_1_Conv2d_4_1x1_128/act_quant/min"
  op: "Const"
  attr {
    key: "dtype"
    value {
      type: DT_FLOAT
    }
  }
  attr {
    key: "value"
    value {
      tensor {
        dtype: DT_FLOAT
        tensor_shape {
        }
        float_val: 0
      }
    }
  }
}
node {
  name: "FeatureExtractor/MobilenetV2/layer_19_1_Conv2d_4_1x1_128/act_quant/min/read"
  op: "Identity"
  input: "FeatureExtractor/MobilenetV2/layer_19_1_Conv2d_4_1x1_128/act_quant/min"
  attr {
    key: "T"
    value {
      type: DT_FLOAT
    }
  }
  attr {
    key: "_class"
    value {
      list {
        s: "loc:@FeatureExtractor/MobilenetV2/layer_19_1_Conv2d_4_1x1_128/act_quant/min"
      }
    }
  }
}
node {
  name: "FeatureExtractor/MobilenetV2/layer_19_1_Conv2d_4_1x1_128/weights_quant/max"
  op: "Const"
  attr {
    key: "dtype"
    value {
      type: DT_FLOAT
    }
  }
  attr {
    key: "value"
    value {
      tensor {
        dtype: DT_FLOAT
        tensor_shape {
        }
        float_val: 0.306981236
      }
    }
  }
}
node {
  name: "FeatureExtractor/MobilenetV2/layer_19_1_Conv2d_4_1x1_128/weights_quant/max/read"
  op: "Identity"
  input: "FeatureExtractor/MobilenetV2/layer_19_1_Conv2d_4_1x1_128/weights_quant/max"
  attr {
    key: "T"
    value {
      type: DT_FLOAT
    }
  }
  attr {
    key: "_class"
    value {
      list {
        s: "loc:@FeatureExtractor/MobilenetV2/layer_19_1_Conv2d_4_1x1_128/weights_quant/max"
      }
    }
  }
}
node {
  name: "FeatureExtractor/MobilenetV2/layer_19_1_Conv2d_4_1x1_128/weights_quant/min"
  op: "Const"
  attr {
    key: "dtype"
    value {
      type: DT_FLOAT
    }
  }
  attr {
    key: "value"
    value {
      tensor {
        dtype: DT_FLOAT
        tensor_shape {
        }
        float_val: -0.167513683
      }
    }
  }
}
node {
  name: "FeatureExtractor/MobilenetV2/layer_19_1_Conv2d_4_1x1_128/weights_quant/min/read"
  op: "Identity"
  input: "FeatureExtractor/MobilenetV2/layer_19_1_Conv2d_4_1x1_128/weights_quant/min"
  attr {
    key: "T"
    value {
      type: DT_FLOAT
    }
  }
  attr {
    key: "_class"
    value {
      list {
        s: "loc:@FeatureExtractor/MobilenetV2/layer_19_1_Conv2d_4_1x1_128/weights_quant/min"
      }
    }
  }
}
node {
  name: "FeatureExtractor/MobilenetV2/layer_19_2_Conv2d_3_3x3_s2_256/act_quant/max"
  op: "Const"
  attr {
    key: "dtype"
    value {
      type: DT_FLOAT
    }
  }
  attr {
    key: "value"
    value {
      tensor {
        dtype: DT_FLOAT
        tensor_shape {
        }
        float_val: 5.99976158
      }
    }
  }
}
node {
  name: "FeatureExtractor/MobilenetV2/layer_19_2_Conv2d_3_3x3_s2_256/act_quant/max/read"
  op: "Identity"
  input: "FeatureExtractor/MobilenetV2/layer_19_2_Conv2d_3_3x3_s2_256/act_quant/max"
  attr {
    key: "T"
    value {
      type: DT_FLOAT
    }
  }
  attr {
    key: "_class"
    value {
      list {
        s: "loc:@FeatureExtractor/MobilenetV2/layer_19_2_Conv2d_3_3x3_s2_256/act_quant/max"
      }
    }
  }
}
node {
  name: "FeatureExtractor/MobilenetV2/layer_19_2_Conv2d_3_3x3_s2_256/act_quant/min"
  op: "Const"
  attr {
    key: "dtype"
    value {
      type: DT_FLOAT
    }
  }
  attr {
    key: "value"
    value {
      tensor {
        dtype: DT_FLOAT
        tensor_shape {
        }
        float_val: 0
      }
    }
  }
}
node {
  name: "FeatureExtractor/MobilenetV2/layer_19_2_Conv2d_3_3x3_s2_256/act_quant/min/read"
  op: "Identity"
  input: "FeatureExtractor/MobilenetV2/layer_19_2_Conv2d_3_3x3_s2_256/act_quant/min"
  attr {
    key: "T"
    value {
      type: DT_FLOAT
    }
  }
  attr {
    key: "_class"
    value {
      list {
        s: "loc:@FeatureExtractor/MobilenetV2/layer_19_2_Conv2d_3_3x3_s2_256/act_quant/min"
      }
    }
  }
}
node {
  name: "FeatureExtractor/MobilenetV2/layer_19_2_Conv2d_3_3x3_s2_256/weights_quant/max"
  op: "Const"
  attr {
    key: "dtype"
    value {
      type: DT_FLOAT
    }
  }
  attr {
    key: "value"
    value {
      tensor {
        dtype: DT_FLOAT
        tensor_shape {
        }
        float_val: 0.612725437
      }
    }
  }
}
node {
  name: "FeatureExtractor/MobilenetV2/layer_19_2_Conv2d_3_3x3_s2_256/weights_quant/max/read"
  op: "Identity"
  input: "FeatureExtractor/MobilenetV2/layer_19_2_Conv2d_3_3x3_s2_256/weights_quant/max"
  attr {
    key: "T"
    value {
      type: DT_FLOAT
    }
  }
  attr {
    key: "_class"
    value {
      list {
        s: "loc:@FeatureExtractor/MobilenetV2/layer_19_2_Conv2d_3_3x3_s2_256/weights_quant/max"
      }
    }
  }
}
node {
  name: "FeatureExtractor/MobilenetV2/layer_19_2_Conv2d_3_3x3_s2_256/weights_quant/min"
  op: "Const"
  attr {
    key: "dtype"
    value {
      type: DT_FLOAT
    }
  }
  attr {
    key: "value"
    value {
      tensor {
        dtype: DT_FLOAT
        tensor_shape {
        }
        float_val: -0.764148891
      }
    }
  }
}
node {
  name: "FeatureExtractor/MobilenetV2/layer_19_2_Conv2d_3_3x3_s2_256/weights_quant/min/read"
  op: "Identity"
  input: "FeatureExtractor/MobilenetV2/layer_19_2_Conv2d_3_3x3_s2_256/weights_quant/min"
  attr {
    key: "T"
    value {
      type: DT_FLOAT
    }
  }
  attr {
    key: "_class"
    value {
      list {
        s: "loc:@FeatureExtractor/MobilenetV2/layer_19_2_Conv2d_3_3x3_s2_256/weights_quant/min"
      }
    }
  }
}
node {
  name: "FeatureExtractor/MobilenetV2/layer_19_1_Conv2d_3_1x1_128/act_quant/max"
  op: "Const"
  attr {
    key: "dtype"
    value {
      type: DT_FLOAT
    }
  }
  attr {
    key: "value"
    value {
      tensor {
        dtype: DT_FLOAT
        tensor_shape {
        }
        float_val: 5.99849129
      }
    }
  }
}
node {
  name: "FeatureExtractor/MobilenetV2/layer_19_1_Conv2d_3_1x1_128/act_quant/max/read"
  op: "Identity"
  input: "FeatureExtractor/MobilenetV2/layer_19_1_Conv2d_3_1x1_128/act_quant/max"
  attr {
    key: "T"
    value {
      type: DT_FLOAT
    }
  }
  attr {
    key: "_class"
    value {
      list {
        s: "loc:@FeatureExtractor/MobilenetV2/layer_19_1_Conv2d_3_1x1_128/act_quant/max"
      }
    }
  }
}
node {
  name: "FeatureExtractor/MobilenetV2/layer_19_1_Conv2d_3_1x1_128/act_quant/min"
  op: "Const"
  attr {
    key: "dtype"
    value {
      type: DT_FLOAT
    }
  }
  attr {
    key: "value"
    value {
      tensor {
        dtype: DT_FLOAT
        tensor_shape {
        }
        float_val: 0
      }
    }
  }
}
node {
  name: "FeatureExtractor/MobilenetV2/layer_19_1_Conv2d_3_1x1_128/act_quant/min/read"
  op: "Identity"
  input: "FeatureExtractor/MobilenetV2/layer_19_1_Conv2d_3_1x1_128/act_quant/min"
  attr {
    key: "T"
    value {
      type: DT_FLOAT
    }
  }
  attr {
    key: "_class"
    value {
      list {
        s: "loc:@FeatureExtractor/MobilenetV2/layer_19_1_Conv2d_3_1x1_128/act_quant/min"
      }
    }
  }
}
node {
  name: "FeatureExtractor/MobilenetV2/layer_19_1_Conv2d_3_1x1_128/weights_quant/max"
  op: "Const"
  attr {
    key: "dtype"
    value {
      type: DT_FLOAT
    }
  }
  attr {
    key: "value"
    value {
      tensor {
        dtype: DT_FLOAT
        tensor_shape {
        }
        float_val: 0.29442066
      }
    }
  }
}
node {
  name: "FeatureExtractor/MobilenetV2/layer_19_1_Conv2d_3_1x1_128/weights_quant/max/read"
  op: "Identity"
  input: "FeatureExtractor/MobilenetV2/layer_19_1_Conv2d_3_1x1_128/weights_quant/max"
  attr {
    key: "T"
    value {
      type: DT_FLOAT
    }
  }
  attr {
    key: "_class"
    value {
      list {
        s: "loc:@FeatureExtractor/MobilenetV2/layer_19_1_Conv2d_3_1x1_128/weights_quant/max"
      }
    }
  }
}
node {
  name: "FeatureExtractor/MobilenetV2/layer_19_1_Conv2d_3_1x1_128/weights_quant/min"
  op: "Const"
  attr {
    key: "dtype"
    value {
      type: DT_FLOAT
    }
  }
  attr {
    key: "value"
    value {
      tensor {
        dtype: DT_FLOAT
        tensor_shape {
        }
        float_val: -0.278245568
      }
    }
  }
}
node {
  name: "FeatureExtractor/MobilenetV2/layer_19_1_Conv2d_3_1x1_128/weights_quant/min/read"
  op: "Identity"
  input: "FeatureExtractor/MobilenetV2/layer_19_1_Conv2d_3_1x1_128/weights_quant/min"
  attr {
    key: "T"
    value {
      type: DT_FLOAT
    }
  }
  attr {
    key: "_class"
    value {
      list {
        s: "loc:@FeatureExtractor/MobilenetV2/layer_19_1_Conv2d_3_1x1_128/weights_quant/min"
      }
    }
  }
}
node {
  name: "FeatureExtractor/MobilenetV2/layer_19_2_Conv2d_2_3x3_s2_512/act_quant/max"
  op: "Const"
  attr {
    key: "dtype"
    value {
      type: DT_FLOAT
    }
  }
  attr {
    key: "value"
    value {
      tensor {
        dtype: DT_FLOAT
        tensor_shape {
        }
        float_val: 5.99976158
      }
    }
  }
}
node {
  name: "FeatureExtractor/MobilenetV2/layer_19_2_Conv2d_2_3x3_s2_512/act_quant/max/read"
  op: "Identity"
  input: "FeatureExtractor/MobilenetV2/layer_19_2_Conv2d_2_3x3_s2_512/act_quant/max"
  attr {
    key: "T"
    value {
      type: DT_FLOAT
    }
  }
  attr {
    key: "_class"
    value {
      list {
        s: "loc:@FeatureExtractor/MobilenetV2/layer_19_2_Conv2d_2_3x3_s2_512/act_quant/max"
      }
    }
  }
}
node {
  name: "FeatureExtractor/MobilenetV2/layer_19_2_Conv2d_2_3x3_s2_512/act_quant/min"
  op: "Const"
  attr {
    key: "dtype"
    value {
      type: DT_FLOAT
    }
  }
  attr {
    key: "value"
    value {
      tensor {
        dtype: DT_FLOAT
        tensor_shape {
        }
        float_val: 0
      }
    }
  }
}
node {
  name: "FeatureExtractor/MobilenetV2/layer_19_2_Conv2d_2_3x3_s2_512/act_quant/min/read"
  op: "Identity"
  input: "FeatureExtractor/MobilenetV2/layer_19_2_Conv2d_2_3x3_s2_512/act_quant/min"
  attr {
    key: "T"
    value {
      type: DT_FLOAT
    }
  }
  attr {
    key: "_class"
    value {
      list {
        s: "loc:@FeatureExtractor/MobilenetV2/layer_19_2_Conv2d_2_3x3_s2_512/act_quant/min"
      }
    }
  }
}
node {
  name: "FeatureExtractor/MobilenetV2/layer_19_2_Conv2d_2_3x3_s2_512/weights_quant/max"
  op: "Const"
  attr {
    key: "dtype"
    value {
      type: DT_FLOAT
    }
  }
  attr {
    key: "value"
    value {
      tensor {
        dtype: DT_FLOAT
        tensor_shape {
        }
        float_val: 0.435497344
      }
    }
  }
}
node {
  name: "FeatureExtractor/MobilenetV2/layer_19_2_Conv2d_2_3x3_s2_512/weights_quant/max/read"
  op: "Identity"
  input: "FeatureExtractor/MobilenetV2/layer_19_2_Conv2d_2_3x3_s2_512/weights_quant/max"
  attr {
    key: "T"
    value {
      type: DT_FLOAT
    }
  }
  attr {
    key: "_class"
    value {
      list {
        s: "loc:@FeatureExtractor/MobilenetV2/layer_19_2_Conv2d_2_3x3_s2_512/weights_quant/max"
      }
    }
  }
}
node {
  name: "FeatureExtractor/MobilenetV2/layer_19_2_Conv2d_2_3x3_s2_512/weights_quant/min"
  op: "Const"
  attr {
    key: "dtype"
    value {
      type: DT_FLOAT
    }
  }
  attr {
    key: "value"
    value {
      tensor {
        dtype: DT_FLOAT
        tensor_shape {
        }
        float_val: -0.556642294
      }
    }
  }
}
node {
  name: "FeatureExtractor/MobilenetV2/layer_19_2_Conv2d_2_3x3_s2_512/weights_quant/min/read"
  op: "Identity"
  input: "FeatureExtractor/MobilenetV2/layer_19_2_Conv2d_2_3x3_s2_512/weights_quant/min"
  attr {
    key: "T"
    value {
      type: DT_FLOAT
    }
  }
  attr {
    key: "_class"
    value {
      list {
        s: "loc:@FeatureExtractor/MobilenetV2/layer_19_2_Conv2d_2_3x3_s2_512/weights_quant/min"
      }
    }
  }
}
node {
  name: "FeatureExtractor/MobilenetV2/layer_19_1_Conv2d_2_1x1_256/act_quant/max"
  op: "Const"
  attr {
    key: "dtype"
    value {
      type: DT_FLOAT
    }
  }
  attr {
    key: "value"
    value {
      tensor {
        dtype: DT_FLOAT
        tensor_shape {
        }
        float_val: 5.99976158
      }
    }
  }
}
node {
  name: "FeatureExtractor/MobilenetV2/layer_19_1_Conv2d_2_1x1_256/act_quant/max/read"
  op: "Identity"
  input: "FeatureExtractor/MobilenetV2/layer_19_1_Conv2d_2_1x1_256/act_quant/max"
  attr {
    key: "T"
    value {
      type: DT_FLOAT
    }
  }
  attr {
    key: "_class"
    value {
      list {
        s: "loc:@FeatureExtractor/MobilenetV2/layer_19_1_Conv2d_2_1x1_256/act_quant/max"
      }
    }
  }
}
node {
  name: "FeatureExtractor/MobilenetV2/layer_19_1_Conv2d_2_1x1_256/act_quant/min"
  op: "Const"
  attr {
    key: "dtype"
    value {
      type: DT_FLOAT
    }
  }
  attr {
    key: "value"
    value {
      tensor {
        dtype: DT_FLOAT
        tensor_shape {
        }
        float_val: 0
      }
    }
  }
}
node {
  name: "FeatureExtractor/MobilenetV2/layer_19_1_Conv2d_2_1x1_256/act_quant/min/read"
  op: "Identity"
  input: "FeatureExtractor/MobilenetV2/layer_19_1_Conv2d_2_1x1_256/act_quant/min"
  attr {
    key: "T"
    value {
      type: DT_FLOAT
    }
  }
  attr {
    key: "_class"
    value {
      list {
        s: "loc:@FeatureExtractor/MobilenetV2/layer_19_1_Conv2d_2_1x1_256/act_quant/min"
      }
    }
  }
}
node {
  name: "FeatureExtractor/MobilenetV2/layer_19_1_Conv2d_2_1x1_256/weights_quant/max"
  op: "Const"
  attr {
    key: "dtype"
    value {
      type: DT_FLOAT
    }
  }
  attr {
    key: "value"
    value {
      tensor {
        dtype: DT_FLOAT
        tensor_shape {
        }
        float_val: 0.616210043
      }
    }
  }
}
node {
  name: "FeatureExtractor/MobilenetV2/layer_19_1_Conv2d_2_1x1_256/weights_quant/max/read"
  op: "Identity"
  input: "FeatureExtractor/MobilenetV2/layer_19_1_Conv2d_2_1x1_256/weights_quant/max"
  attr {
    key: "T"
    value {
      type: DT_FLOAT
    }
  }
  attr {
    key: "_class"
    value {
      list {
        s: "loc:@FeatureExtractor/MobilenetV2/layer_19_1_Conv2d_2_1x1_256/weights_quant/max"
      }
    }
  }
}
node {
  name: "FeatureExtractor/MobilenetV2/layer_19_1_Conv2d_2_1x1_256/weights_quant/min"
  op: "Const"
  attr {
    key: "dtype"
    value {
      type: DT_FLOAT
    }
  }
  attr {
    key: "value"
    value {
      tensor {
        dtype: DT_FLOAT
        tensor_shape {
        }
        float_val: -0.418708
      }
    }
  }
}
node {
  name: "FeatureExtractor/MobilenetV2/layer_19_1_Conv2d_2_1x1_256/weights_quant/min/read"
  op: "Identity"
  input: "FeatureExtractor/MobilenetV2/layer_19_1_Conv2d_2_1x1_256/weights_quant/min"
  attr {
    key: "T"
    value {
      type: DT_FLOAT
    }
  }
  attr {
    key: "_class"
    value {
      list {
        s: "loc:@FeatureExtractor/MobilenetV2/layer_19_1_Conv2d_2_1x1_256/weights_quant/min"
      }
    }
  }
}
node {
  name: "FeatureExtractor/MobilenetV2/Conv_1/act_quant/max"
  op: "Const"
  attr {
    key: "dtype"
    value {
      type: DT_FLOAT
    }
  }
  attr {
    key: "value"
    value {
      tensor {
        dtype: DT_FLOAT
        tensor_shape {
        }
        float_val: 5.99976158
      }
    }
  }
}
node {
  name: "FeatureExtractor/MobilenetV2/Conv_1/act_quant/max/read"
  op: "Identity"
  input: "FeatureExtractor/MobilenetV2/Conv_1/act_quant/max"
  attr {
    key: "T"
    value {
      type: DT_FLOAT
    }
  }
  attr {
    key: "_class"
    value {
      list {
        s: "loc:@FeatureExtractor/MobilenetV2/Conv_1/act_quant/max"
      }
    }
  }
}
node {
  name: "FeatureExtractor/MobilenetV2/Conv_1/act_quant/min"
  op: "Const"
  attr {
    key: "dtype"
    value {
      type: DT_FLOAT
    }
  }
  attr {
    key: "value"
    value {
      tensor {
        dtype: DT_FLOAT
        tensor_shape {
        }
        float_val: 0
      }
    }
  }
}
node {
  name: "FeatureExtractor/MobilenetV2/Conv_1/act_quant/min/read"
  op: "Identity"
  input: "FeatureExtractor/MobilenetV2/Conv_1/act_quant/min"
  attr {
    key: "T"
    value {
      type: DT_FLOAT
    }
  }
  attr {
    key: "_class"
    value {
      list {
        s: "loc:@FeatureExtractor/MobilenetV2/Conv_1/act_quant/min"
      }
    }
  }
}
node {
  name: "FeatureExtractor/MobilenetV2/Conv_1/weights_quant/max"
  op: "Const"
  attr {
    key: "dtype"
    value {
      type: DT_FLOAT
    }
  }
  attr {
    key: "value"
    value {
      tensor {
        dtype: DT_FLOAT
        tensor_shape {
        }
        float_val: 0.351627976
      }
    }
  }
}
node {
  name: "FeatureExtractor/MobilenetV2/Conv_1/weights_quant/max/read"
  op: "Identity"
  input: "FeatureExtractor/MobilenetV2/Conv_1/weights_quant/max"
  attr {
    key: "T"
    value {
      type: DT_FLOAT
    }
  }
  attr {
    key: "_class"
    value {
      list {
        s: "loc:@FeatureExtractor/MobilenetV2/Conv_1/weights_quant/max"
      }
    }
  }
}
node {
  name: "FeatureExtractor/MobilenetV2/Conv_1/weights_quant/min"
  op: "Const"
  attr {
    key: "dtype"
    value {
      type: DT_FLOAT
    }
  }
  attr {
    key: "value"
    value {
      tensor {
        dtype: DT_FLOAT
        tensor_shape {
        }
        float_val: -0.284257114
      }
    }
  }
}
node {
  name: "FeatureExtractor/MobilenetV2/Conv_1/weights_quant/min/read"
  op: "Identity"
  input: "FeatureExtractor/MobilenetV2/Conv_1/weights_quant/min"
  attr {
    key: "T"
    value {
      type: DT_FLOAT
    }
  }
  attr {
    key: "_class"
    value {
      list {
        s: "loc:@FeatureExtractor/MobilenetV2/Conv_1/weights_quant/min"
      }
    }
  }
}
node {
  name: "FeatureExtractor/MobilenetV2/expanded_conv_16/project/act_quant/max"
  op: "Const"
  attr {
    key: "dtype"
    value {
      type: DT_FLOAT
    }
  }
  attr {
    key: "value"
    value {
      tensor {
        dtype: DT_FLOAT
        tensor_shape {
        }
        float_val: 17.221571
      }
    }
  }
}
node {
  name: "FeatureExtractor/MobilenetV2/expanded_conv_16/project/act_quant/max/read"
  op: "Identity"
  input: "FeatureExtractor/MobilenetV2/expanded_conv_16/project/act_quant/max"
  attr {
    key: "T"
    value {
      type: DT_FLOAT
    }
  }
  attr {
    key: "_class"
    value {
      list {
        s: "loc:@FeatureExtractor/MobilenetV2/expanded_conv_16/project/act_quant/max"
      }
    }
  }
}
node {
  name: "FeatureExtractor/MobilenetV2/expanded_conv_16/project/act_quant/min"
  op: "Const"
  attr {
    key: "dtype"
    value {
      type: DT_FLOAT
    }
  }
  attr {
    key: "value"
    value {
      tensor {
        dtype: DT_FLOAT
        tensor_shape {
        }
        float_val: -19.6936417
      }
    }
  }
}
node {
  name: "FeatureExtractor/MobilenetV2/expanded_conv_16/project/act_quant/min/read"
  op: "Identity"
  input: "FeatureExtractor/MobilenetV2/expanded_conv_16/project/act_quant/min"
  attr {
    key: "T"
    value {
      type: DT_FLOAT
    }
  }
  attr {
    key: "_class"
    value {
      list {
        s: "loc:@FeatureExtractor/MobilenetV2/expanded_conv_16/project/act_quant/min"
      }
    }
  }
}
node {
  name: "FeatureExtractor/MobilenetV2/expanded_conv_16/project/weights_quant/max"
  op: "Const"
  attr {
    key: "dtype"
    value {
      type: DT_FLOAT
    }
  }
  attr {
    key: "value"
    value {
      tensor {
        dtype: DT_FLOAT
        tensor_shape {
        }
        float_val: 0.42989397
      }
    }
  }
}
node {
  name: "FeatureExtractor/MobilenetV2/expanded_conv_16/project/weights_quant/max/read"
  op: "Identity"
  input: "FeatureExtractor/MobilenetV2/expanded_conv_16/project/weights_quant/max"
  attr {
    key: "T"
    value {
      type: DT_FLOAT
    }
  }
  attr {
    key: "_class"
    value {
      list {
        s: "loc:@FeatureExtractor/MobilenetV2/expanded_conv_16/project/weights_quant/max"
      }
    }
  }
}
node {
  name: "FeatureExtractor/MobilenetV2/expanded_conv_16/project/weights_quant/min"
  op: "Const"
  attr {
    key: "dtype"
    value {
      type: DT_FLOAT
    }
  }
  attr {
    key: "value"
    value {
      tensor {
        dtype: DT_FLOAT
        tensor_shape {
        }
        float_val: -0.362350076
      }
    }
  }
}
node {
  name: "FeatureExtractor/MobilenetV2/expanded_conv_16/project/weights_quant/min/read"
  op: "Identity"
  input: "FeatureExtractor/MobilenetV2/expanded_conv_16/project/weights_quant/min"
  attr {
    key: "T"
    value {
      type: DT_FLOAT
    }
  }
  attr {
    key: "_class"
    value {
      list {
        s: "loc:@FeatureExtractor/MobilenetV2/expanded_conv_16/project/weights_quant/min"
      }
    }
  }
}
node {
  name: "FeatureExtractor/MobilenetV2/expanded_conv_16/depthwise/act_quant/max"
  op: "Const"
  attr {
    key: "dtype"
    value {
      type: DT_FLOAT
    }
  }
  attr {
    key: "value"
    value {
      tensor {
        dtype: DT_FLOAT
        tensor_shape {
        }
        float_val: 5.99976158
      }
    }
  }
}
node {
  name: "FeatureExtractor/MobilenetV2/expanded_conv_16/depthwise/act_quant/max/read"
  op: "Identity"
  input: "FeatureExtractor/MobilenetV2/expanded_conv_16/depthwise/act_quant/max"
  attr {
    key: "T"
    value {
      type: DT_FLOAT
    }
  }
  attr {
    key: "_class"
    value {
      list {
        s: "loc:@FeatureExtractor/MobilenetV2/expanded_conv_16/depthwise/act_quant/max"
      }
    }
  }
}
node {
  name: "FeatureExtractor/MobilenetV2/expanded_conv_16/depthwise/act_quant/min"
  op: "Const"
  attr {
    key: "dtype"
    value {
      type: DT_FLOAT
    }
  }
  attr {
    key: "value"
    value {
      tensor {
        dtype: DT_FLOAT
        tensor_shape {
        }
        float_val: 0
      }
    }
  }
}
node {
  name: "FeatureExtractor/MobilenetV2/expanded_conv_16/depthwise/act_quant/min/read"
  op: "Identity"
  input: "FeatureExtractor/MobilenetV2/expanded_conv_16/depthwise/act_quant/min"
  attr {
    key: "T"
    value {
      type: DT_FLOAT
    }
  }
  attr {
    key: "_class"
    value {
      list {
        s: "loc:@FeatureExtractor/MobilenetV2/expanded_conv_16/depthwise/act_quant/min"
      }
    }
  }
}
node {
  name: "FeatureExtractor/MobilenetV2/expanded_conv_16/depthwise/weights_quant/max"
  op: "Const"
  attr {
    key: "dtype"
    value {
      type: DT_FLOAT
    }
  }
  attr {
    key: "value"
    value {
      tensor {
        dtype: DT_FLOAT
        tensor_shape {
        }
        float_val: 7.56826973
      }
    }
  }
}
node {
  name: "FeatureExtractor/MobilenetV2/expanded_conv_16/depthwise/weights_quant/max/read"
  op: "Identity"
  input: "FeatureExtractor/MobilenetV2/expanded_conv_16/depthwise/weights_quant/max"
  attr {
    key: "T"
    value {
      type: DT_FLOAT
    }
  }
  attr {
    key: "_class"
    value {
      list {
        s: "loc:@FeatureExtractor/MobilenetV2/expanded_conv_16/depthwise/weights_quant/max"
      }
    }
  }
}
node {
  name: "FeatureExtractor/MobilenetV2/expanded_conv_16/depthwise/weights_quant/min"
  op: "Const"
  attr {
    key: "dtype"
    value {
      type: DT_FLOAT
    }
  }
  attr {
    key: "value"
    value {
      tensor {
        dtype: DT_FLOAT
        tensor_shape {
        }
        float_val: -3.06660247
      }
    }
  }
}
node {
  name: "FeatureExtractor/MobilenetV2/expanded_conv_16/depthwise/weights_quant/min/read"
  op: "Identity"
  input: "FeatureExtractor/MobilenetV2/expanded_conv_16/depthwise/weights_quant/min"
  attr {
    key: "T"
    value {
      type: DT_FLOAT
    }
  }
  attr {
    key: "_class"
    value {
      list {
        s: "loc:@FeatureExtractor/MobilenetV2/expanded_conv_16/depthwise/weights_quant/min"
      }
    }
  }
}
node {
  name: "FeatureExtractor/MobilenetV2/expanded_conv_16/expand/act_quant/max"
  op: "Const"
  attr {
    key: "dtype"
    value {
      type: DT_FLOAT
    }
  }
  attr {
    key: "value"
    value {
      tensor {
        dtype: DT_FLOAT
        tensor_shape {
        }
        float_val: 5.99976158
      }
    }
  }
}
node {
  name: "FeatureExtractor/MobilenetV2/expanded_conv_16/expand/act_quant/max/read"
  op: "Identity"
  input: "FeatureExtractor/MobilenetV2/expanded_conv_16/expand/act_quant/max"
  attr {
    key: "T"
    value {
      type: DT_FLOAT
    }
  }
  attr {
    key: "_class"
    value {
      list {
        s: "loc:@FeatureExtractor/MobilenetV2/expanded_conv_16/expand/act_quant/max"
      }
    }
  }
}
node {
  name: "FeatureExtractor/MobilenetV2/expanded_conv_16/expand/act_quant/min"
  op: "Const"
  attr {
    key: "dtype"
    value {
      type: DT_FLOAT
    }
  }
  attr {
    key: "value"
    value {
      tensor {
        dtype: DT_FLOAT
        tensor_shape {
        }
        float_val: 0
      }
    }
  }
}
node {
  name: "FeatureExtractor/MobilenetV2/expanded_conv_16/expand/act_quant/min/read"
  op: "Identity"
  input: "FeatureExtractor/MobilenetV2/expanded_conv_16/expand/act_quant/min"
  attr {
    key: "T"
    value {
      type: DT_FLOAT
    }
  }
  attr {
    key: "_class"
    value {
      list {
        s: "loc:@FeatureExtractor/MobilenetV2/expanded_conv_16/expand/act_quant/min"
      }
    }
  }
}
node {
  name: "FeatureExtractor/MobilenetV2/expanded_conv_16/expand/weights_quant/max"
  op: "Const"
  attr {
    key: "dtype"
    value {
      type: DT_FLOAT
    }
  }
  attr {
    key: "value"
    value {
      tensor {
        dtype: DT_FLOAT
        tensor_shape {
        }
        float_val: 0.0993625149
      }
    }
  }
}
node {
  name: "FeatureExtractor/MobilenetV2/expanded_conv_16/expand/weights_quant/max/read"
  op: "Identity"
  input: "FeatureExtractor/MobilenetV2/expanded_conv_16/expand/weights_quant/max"
  attr {
    key: "T"
    value {
      type: DT_FLOAT
    }
  }
  attr {
    key: "_class"
    value {
      list {
        s: "loc:@FeatureExtractor/MobilenetV2/expanded_conv_16/expand/weights_quant/max"
      }
    }
  }
}
node {
  name: "FeatureExtractor/MobilenetV2/expanded_conv_16/expand/weights_quant/min"
  op: "Const"
  attr {
    key: "dtype"
    value {
      type: DT_FLOAT
    }
  }
  attr {
    key: "value"
    value {
      tensor {
        dtype: DT_FLOAT
        tensor_shape {
        }
        float_val: -0.110014148
      }
    }
  }
}
node {
  name: "FeatureExtractor/MobilenetV2/expanded_conv_16/expand/weights_quant/min/read"
  op: "Identity"
  input: "FeatureExtractor/MobilenetV2/expanded_conv_16/expand/weights_quant/min"
  attr {
    key: "T"
    value {
      type: DT_FLOAT
    }
  }
  attr {
    key: "_class"
    value {
      list {
        s: "loc:@FeatureExtractor/MobilenetV2/expanded_conv_16/expand/weights_quant/min"
      }
    }
  }
}
node {
  name: "FeatureExtractor/MobilenetV2/expanded_conv_15/depthwise/act_quant/max"
  op: "Const"
  attr {
    key: "dtype"
    value {
      type: DT_FLOAT
    }
  }
  attr {
    key: "value"
    value {
      tensor {
        dtype: DT_FLOAT
        tensor_shape {
        }
        float_val: 5.99976158
      }
    }
  }
}
node {
  name: "FeatureExtractor/MobilenetV2/expanded_conv_15/depthwise/act_quant/max/read"
  op: "Identity"
  input: "FeatureExtractor/MobilenetV2/expanded_conv_15/depthwise/act_quant/max"
  attr {
    key: "T"
    value {
      type: DT_FLOAT
    }
  }
  attr {
    key: "_class"
    value {
      list {
        s: "loc:@FeatureExtractor/MobilenetV2/expanded_conv_15/depthwise/act_quant/max"
      }
    }
  }
}
node {
  name: "FeatureExtractor/MobilenetV2/expanded_conv_15/depthwise/act_quant/min"
  op: "Const"
  attr {
    key: "dtype"
    value {
      type: DT_FLOAT
    }
  }
  attr {
    key: "value"
    value {
      tensor {
        dtype: DT_FLOAT
        tensor_shape {
        }
        float_val: 0
      }
    }
  }
}
node {
  name: "FeatureExtractor/MobilenetV2/expanded_conv_15/depthwise/act_quant/min/read"
  op: "Identity"
  input: "FeatureExtractor/MobilenetV2/expanded_conv_15/depthwise/act_quant/min"
  attr {
    key: "T"
    value {
      type: DT_FLOAT
    }
  }
  attr {
    key: "_class"
    value {
      list {
        s: "loc:@FeatureExtractor/MobilenetV2/expanded_conv_15/depthwise/act_quant/min"
      }
    }
  }
}
node {
  name: "FeatureExtractor/MobilenetV2/expanded_conv_15/depthwise/weights_quant/max"
  op: "Const"
  attr {
    key: "dtype"
    value {
      type: DT_FLOAT
    }
  }
  attr {
    key: "value"
    value {
      tensor {
        dtype: DT_FLOAT
        tensor_shape {
        }
        float_val: 4.05595207
      }
    }
  }
}
node {
  name: "FeatureExtractor/MobilenetV2/expanded_conv_15/depthwise/weights_quant/max/read"
  op: "Identity"
  input: "FeatureExtractor/MobilenetV2/expanded_conv_15/depthwise/weights_quant/max"
  attr {
    key: "T"
    value {
      type: DT_FLOAT
    }
  }
  attr {
    key: "_class"
    value {
      list {
        s: "loc:@FeatureExtractor/MobilenetV2/expanded_conv_15/depthwise/weights_quant/max"
      }
    }
  }
}
node {
  name: "FeatureExtractor/MobilenetV2/expanded_conv_15/depthwise/weights_quant/min"
  op: "Const"
  attr {
    key: "dtype"
    value {
      type: DT_FLOAT
    }
  }
  attr {
    key: "value"
    value {
      tensor {
        dtype: DT_FLOAT
        tensor_shape {
        }
        float_val: -3.9325242
      }
    }
  }
}
node {
  name: "FeatureExtractor/MobilenetV2/expanded_conv_15/depthwise/weights_quant/min/read"
  op: "Identity"
  input: "FeatureExtractor/MobilenetV2/expanded_conv_15/depthwise/weights_quant/min"
  attr {
    key: "T"
    value {
      type: DT_FLOAT
    }
  }
  attr {
    key: "_class"
    value {
      list {
        s: "loc:@FeatureExtractor/MobilenetV2/expanded_conv_15/depthwise/weights_quant/min"
      }
    }
  }
}
node {
  name: "FeatureExtractor/MobilenetV2/expanded_conv_15/expand/act_quant/max"
  op: "Const"
  attr {
    key: "dtype"
    value {
      type: DT_FLOAT
    }
  }
  attr {
    key: "value"
    value {
      tensor {
        dtype: DT_FLOAT
        tensor_shape {
        }
        float_val: 5.99976158
      }
    }
  }
}
node {
  name: "FeatureExtractor/MobilenetV2/expanded_conv_15/expand/act_quant/max/read"
  op: "Identity"
  input: "FeatureExtractor/MobilenetV2/expanded_conv_15/expand/act_quant/max"
  attr {
    key: "T"
    value {
      type: DT_FLOAT
    }
  }
  attr {
    key: "_class"
    value {
      list {
        s: "loc:@FeatureExtractor/MobilenetV2/expanded_conv_15/expand/act_quant/max"
      }
    }
  }
}
node {
  name: "FeatureExtractor/MobilenetV2/expanded_conv_15/expand/act_quant/min"
  op: "Const"
  attr {
    key: "dtype"
    value {
      type: DT_FLOAT
    }
  }
  attr {
    key: "value"
    value {
      tensor {
        dtype: DT_FLOAT
        tensor_shape {
        }
        float_val: 0
      }
    }
  }
}
node {
  name: "FeatureExtractor/MobilenetV2/expanded_conv_15/expand/act_quant/min/read"
  op: "Identity"
  input: "FeatureExtractor/MobilenetV2/expanded_conv_15/expand/act_quant/min"
  attr {
    key: "T"
    value {
      type: DT_FLOAT
    }
  }
  attr {
    key: "_class"
    value {
      list {
        s: "loc:@FeatureExtractor/MobilenetV2/expanded_conv_15/expand/act_quant/min"
      }
    }
  }
}
node {
  name: "FeatureExtractor/MobilenetV2/expanded_conv_15/expand/weights_quant/max"
  op: "Const"
  attr {
    key: "dtype"
    value {
      type: DT_FLOAT
    }
  }
  attr {
    key: "value"
    value {
      tensor {
        dtype: DT_FLOAT
        tensor_shape {
        }
        float_val: 0.185982585
      }
    }
  }
}
node {
  name: "FeatureExtractor/MobilenetV2/expanded_conv_15/expand/weights_quant/max/read"
  op: "Identity"
  input: "FeatureExtractor/MobilenetV2/expanded_conv_15/expand/weights_quant/max"
  attr {
    key: "T"
    value {
      type: DT_FLOAT
    }
  }
  attr {
    key: "_class"
    value {
      list {
        s: "loc:@FeatureExtractor/MobilenetV2/expanded_conv_15/expand/weights_quant/max"
      }
    }
  }
}
node {
  name: "FeatureExtractor/MobilenetV2/expanded_conv_15/expand/weights_quant/min"
  op: "Const"
  attr {
    key: "dtype"
    value {
      type: DT_FLOAT
    }
  }
  attr {
    key: "value"
    value {
      tensor {
        dtype: DT_FLOAT
        tensor_shape {
        }
        float_val: -0.245274976
      }
    }
  }
}
node {
  name: "FeatureExtractor/MobilenetV2/expanded_conv_15/expand/weights_quant/min/read"
  op: "Identity"
  input: "FeatureExtractor/MobilenetV2/expanded_conv_15/expand/weights_quant/min"
  attr {
    key: "T"
    value {
      type: DT_FLOAT
    }
  }
  attr {
    key: "_class"
    value {
      list {
        s: "loc:@FeatureExtractor/MobilenetV2/expanded_conv_15/expand/weights_quant/min"
      }
    }
  }
}
node {
  name: "FeatureExtractor/MobilenetV2/expanded_conv_14/depthwise/act_quant/max"
  op: "Const"
  attr {
    key: "dtype"
    value {
      type: DT_FLOAT
    }
  }
  attr {
    key: "value"
    value {
      tensor {
        dtype: DT_FLOAT
        tensor_shape {
        }
        float_val: 5.99976158
      }
    }
  }
}
node {
  name: "FeatureExtractor/MobilenetV2/expanded_conv_14/depthwise/act_quant/max/read"
  op: "Identity"
  input: "FeatureExtractor/MobilenetV2/expanded_conv_14/depthwise/act_quant/max"
  attr {
    key: "T"
    value {
      type: DT_FLOAT
    }
  }
  attr {
    key: "_class"
    value {
      list {
        s: "loc:@FeatureExtractor/MobilenetV2/expanded_conv_14/depthwise/act_quant/max"
      }
    }
  }
}
node {
  name: "FeatureExtractor/MobilenetV2/expanded_conv_14/depthwise/act_quant/min"
  op: "Const"
  attr {
    key: "dtype"
    value {
      type: DT_FLOAT
    }
  }
  attr {
    key: "value"
    value {
      tensor {
        dtype: DT_FLOAT
        tensor_shape {
        }
        float_val: 0
      }
    }
  }
}
node {
  name: "FeatureExtractor/MobilenetV2/expanded_conv_14/depthwise/act_quant/min/read"
  op: "Identity"
  input: "FeatureExtractor/MobilenetV2/expanded_conv_14/depthwise/act_quant/min"
  attr {
    key: "T"
    value {
      type: DT_FLOAT
    }
  }
  attr {
    key: "_class"
    value {
      list {
        s: "loc:@FeatureExtractor/MobilenetV2/expanded_conv_14/depthwise/act_quant/min"
      }
    }
  }
}
node {
  name: "FeatureExtractor/MobilenetV2/expanded_conv_14/depthwise/weights_quant/max"
  op: "Const"
  attr {
    key: "dtype"
    value {
      type: DT_FLOAT
    }
  }
  attr {
    key: "value"
    value {
      tensor {
        dtype: DT_FLOAT
        tensor_shape {
        }
        float_val: 3.74844885
      }
    }
  }
}
node {
  name: "FeatureExtractor/MobilenetV2/expanded_conv_14/depthwise/weights_quant/max/read"
  op: "Identity"
  input: "FeatureExtractor/MobilenetV2/expanded_conv_14/depthwise/weights_quant/max"
  attr {
    key: "T"
    value {
      type: DT_FLOAT
    }
  }
  attr {
    key: "_class"
    value {
      list {
        s: "loc:@FeatureExtractor/MobilenetV2/expanded_conv_14/depthwise/weights_quant/max"
      }
    }
  }
}
node {
  name: "FeatureExtractor/MobilenetV2/expanded_conv_14/depthwise/weights_quant/min"
  op: "Const"
  attr {
    key: "dtype"
    value {
      type: DT_FLOAT
    }
  }
  attr {
    key: "value"
    value {
      tensor {
        dtype: DT_FLOAT
        tensor_shape {
        }
        float_val: -8.59649563
      }
    }
  }
}
node {
  name: "FeatureExtractor/MobilenetV2/expanded_conv_14/depthwise/weights_quant/min/read"
  op: "Identity"
  input: "FeatureExtractor/MobilenetV2/expanded_conv_14/depthwise/weights_quant/min"
  attr {
    key: "T"
    value {
      type: DT_FLOAT
    }
  }
  attr {
    key: "_class"
    value {
      list {
        s: "loc:@FeatureExtractor/MobilenetV2/expanded_conv_14/depthwise/weights_quant/min"
      }
    }
  }
}
node {
  name: "FeatureExtractor/MobilenetV2/expanded_conv_14/expand/act_quant/max"
  op: "Const"
  attr {
    key: "dtype"
    value {
      type: DT_FLOAT
    }
  }
  attr {
    key: "value"
    value {
      tensor {
        dtype: DT_FLOAT
        tensor_shape {
        }
        float_val: 5.99976158
      }
    }
  }
}
node {
  name: "FeatureExtractor/MobilenetV2/expanded_conv_14/expand/act_quant/max/read"
  op: "Identity"
  input: "FeatureExtractor/MobilenetV2/expanded_conv_14/expand/act_quant/max"
  attr {
    key: "T"
    value {
      type: DT_FLOAT
    }
  }
  attr {
    key: "_class"
    value {
      list {
        s: "loc:@FeatureExtractor/MobilenetV2/expanded_conv_14/expand/act_quant/max"
      }
    }
  }
}
node {
  name: "FeatureExtractor/MobilenetV2/expanded_conv_14/expand/act_quant/min"
  op: "Const"
  attr {
    key: "dtype"
    value {
      type: DT_FLOAT
    }
  }
  attr {
    key: "value"
    value {
      tensor {
        dtype: DT_FLOAT
        tensor_shape {
        }
        float_val: 0
      }
    }
  }
}
node {
  name: "FeatureExtractor/MobilenetV2/expanded_conv_14/expand/act_quant/min/read"
  op: "Identity"
  input: "FeatureExtractor/MobilenetV2/expanded_conv_14/expand/act_quant/min"
  attr {
    key: "T"
    value {
      type: DT_FLOAT
    }
  }
  attr {
    key: "_class"
    value {
      list {
        s: "loc:@FeatureExtractor/MobilenetV2/expanded_conv_14/expand/act_quant/min"
      }
    }
  }
}
node {
  name: "FeatureExtractor/MobilenetV2/expanded_conv_14/expand/weights_quant/max"
  op: "Const"
  attr {
    key: "dtype"
    value {
      type: DT_FLOAT
    }
  }
  attr {
    key: "value"
    value {
      tensor {
        dtype: DT_FLOAT
        tensor_shape {
        }
        float_val: 0.329809695
      }
    }
  }
}
node {
  name: "FeatureExtractor/MobilenetV2/expanded_conv_14/expand/weights_quant/max/read"
  op: "Identity"
  input: "FeatureExtractor/MobilenetV2/expanded_conv_14/expand/weights_quant/max"
  attr {
    key: "T"
    value {
      type: DT_FLOAT
    }
  }
  attr {
    key: "_class"
    value {
      list {
        s: "loc:@FeatureExtractor/MobilenetV2/expanded_conv_14/expand/weights_quant/max"
      }
    }
  }
}
node {
  name: "FeatureExtractor/MobilenetV2/expanded_conv_14/expand/weights_quant/min"
  op: "Const"
  attr {
    key: "dtype"
    value {
      type: DT_FLOAT
    }
  }
  attr {
    key: "value"
    value {
      tensor {
        dtype: DT_FLOAT
        tensor_shape {
        }
        float_val: -0.484010875
      }
    }
  }
}
node {
  name: "FeatureExtractor/MobilenetV2/expanded_conv_14/expand/weights_quant/min/read"
  op: "Identity"
  input: "FeatureExtractor/MobilenetV2/expanded_conv_14/expand/weights_quant/min"
  attr {
    key: "T"
    value {
      type: DT_FLOAT
    }
  }
  attr {
    key: "_class"
    value {
      list {
        s: "loc:@FeatureExtractor/MobilenetV2/expanded_conv_14/expand/weights_quant/min"
      }
    }
  }
}
node {
  name: "FeatureExtractor/MobilenetV2/expanded_conv_13/project/act_quant/max"
  op: "Const"
  attr {
    key: "dtype"
    value {
      type: DT_FLOAT
    }
  }
  attr {
    key: "value"
    value {
      tensor {
        dtype: DT_FLOAT
        tensor_shape {
        }
        float_val: 11.4323683
      }
    }
  }
}
node {
  name: "FeatureExtractor/MobilenetV2/expanded_conv_13/project/act_quant/max/read"
  op: "Identity"
  input: "FeatureExtractor/MobilenetV2/expanded_conv_13/project/act_quant/max"
  attr {
    key: "T"
    value {
      type: DT_FLOAT
    }
  }
  attr {
    key: "_class"
    value {
      list {
        s: "loc:@FeatureExtractor/MobilenetV2/expanded_conv_13/project/act_quant/max"
      }
    }
  }
}
node {
  name: "FeatureExtractor/MobilenetV2/expanded_conv_13/project/act_quant/min"
  op: "Const"
  attr {
    key: "dtype"
    value {
      type: DT_FLOAT
    }
  }
  attr {
    key: "value"
    value {
      tensor {
        dtype: DT_FLOAT
        tensor_shape {
        }
        float_val: -11.1686792
      }
    }
  }
}
node {
  name: "FeatureExtractor/MobilenetV2/expanded_conv_13/project/act_quant/min/read"
  op: "Identity"
  input: "FeatureExtractor/MobilenetV2/expanded_conv_13/project/act_quant/min"
  attr {
    key: "T"
    value {
      type: DT_FLOAT
    }
  }
  attr {
    key: "_class"
    value {
      list {
        s: "loc:@FeatureExtractor/MobilenetV2/expanded_conv_13/project/act_quant/min"
      }
    }
  }
}
node {
  name: "FeatureExtractor/MobilenetV2/expanded_conv_13/project/weights_quant/max"
  op: "Const"
  attr {
    key: "dtype"
    value {
      type: DT_FLOAT
    }
  }
  attr {
    key: "value"
    value {
      tensor {
        dtype: DT_FLOAT
        tensor_shape {
        }
        float_val: 0.424039036
      }
    }
  }
}
node {
  name: "FeatureExtractor/MobilenetV2/expanded_conv_13/project/weights_quant/max/read"
  op: "Identity"
  input: "FeatureExtractor/MobilenetV2/expanded_conv_13/project/weights_quant/max"
  attr {
    key: "T"
    value {
      type: DT_FLOAT
    }
  }
  attr {
    key: "_class"
    value {
      list {
        s: "loc:@FeatureExtractor/MobilenetV2/expanded_conv_13/project/weights_quant/max"
      }
    }
  }
}
node {
  name: "FeatureExtractor/MobilenetV2/expanded_conv_13/project/weights_quant/min"
  op: "Const"
  attr {
    key: "dtype"
    value {
      type: DT_FLOAT
    }
  }
  attr {
    key: "value"
    value {
      tensor {
        dtype: DT_FLOAT
        tensor_shape {
        }
        float_val: -0.563163936
      }
    }
  }
}
node {
  name: "FeatureExtractor/MobilenetV2/expanded_conv_13/project/weights_quant/min/read"
  op: "Identity"
  input: "FeatureExtractor/MobilenetV2/expanded_conv_13/project/weights_quant/min"
  attr {
    key: "T"
    value {
      type: DT_FLOAT
    }
  }
  attr {
    key: "_class"
    value {
      list {
        s: "loc:@FeatureExtractor/MobilenetV2/expanded_conv_13/project/weights_quant/min"
      }
    }
  }
}
node {
  name: "FeatureExtractor/MobilenetV2/expanded_conv_13/depthwise/act_quant/max"
  op: "Const"
  attr {
    key: "dtype"
    value {
      type: DT_FLOAT
    }
  }
  attr {
    key: "value"
    value {
      tensor {
        dtype: DT_FLOAT
        tensor_shape {
        }
        float_val: 5.99976158
      }
    }
  }
}
node {
  name: "FeatureExtractor/MobilenetV2/expanded_conv_13/depthwise/act_quant/max/read"
  op: "Identity"
  input: "FeatureExtractor/MobilenetV2/expanded_conv_13/depthwise/act_quant/max"
  attr {
    key: "T"
    value {
      type: DT_FLOAT
    }
  }
  attr {
    key: "_class"
    value {
      list {
        s: "loc:@FeatureExtractor/MobilenetV2/expanded_conv_13/depthwise/act_quant/max"
      }
    }
  }
}
node {
  name: "FeatureExtractor/MobilenetV2/expanded_conv_13/depthwise/act_quant/min"
  op: "Const"
  attr {
    key: "dtype"
    value {
      type: DT_FLOAT
    }
  }
  attr {
    key: "value"
    value {
      tensor {
        dtype: DT_FLOAT
        tensor_shape {
        }
        float_val: 0
      }
    }
  }
}
node {
  name: "FeatureExtractor/MobilenetV2/expanded_conv_13/depthwise/act_quant/min/read"
  op: "Identity"
  input: "FeatureExtractor/MobilenetV2/expanded_conv_13/depthwise/act_quant/min"
  attr {
    key: "T"
    value {
      type: DT_FLOAT
    }
  }
  attr {
    key: "_class"
    value {
      list {
        s: "loc:@FeatureExtractor/MobilenetV2/expanded_conv_13/depthwise/act_quant/min"
      }
    }
  }
}
node {
  name: "FeatureExtractor/MobilenetV2/expanded_conv_13/depthwise/weights_quant/max"
  op: "Const"
  attr {
    key: "dtype"
    value {
      type: DT_FLOAT
    }
  }
  attr {
    key: "value"
    value {
      tensor {
        dtype: DT_FLOAT
        tensor_shape {
        }
        float_val: 35.5585594
      }
    }
  }
}
node {
  name: "FeatureExtractor/MobilenetV2/expanded_conv_13/depthwise/weights_quant/max/read"
  op: "Identity"
  input: "FeatureExtractor/MobilenetV2/expanded_conv_13/depthwise/weights_quant/max"
  attr {
    key: "T"
    value {
      type: DT_FLOAT
    }
  }
  attr {
    key: "_class"
    value {
      list {
        s: "loc:@FeatureExtractor/MobilenetV2/expanded_conv_13/depthwise/weights_quant/max"
      }
    }
  }
}
node {
  name: "FeatureExtractor/MobilenetV2/expanded_conv_13/depthwise/weights_quant/min"
  op: "Const"
  attr {
    key: "dtype"
    value {
      type: DT_FLOAT
    }
  }
  attr {
    key: "value"
    value {
      tensor {
        dtype: DT_FLOAT
        tensor_shape {
        }
        float_val: -18.6406841
      }
    }
  }
}
node {
  name: "FeatureExtractor/MobilenetV2/expanded_conv_13/depthwise/weights_quant/min/read"
  op: "Identity"
  input: "FeatureExtractor/MobilenetV2/expanded_conv_13/depthwise/weights_quant/min"
  attr {
    key: "T"
    value {
      type: DT_FLOAT
    }
  }
  attr {
    key: "_class"
    value {
      list {
        s: "loc:@FeatureExtractor/MobilenetV2/expanded_conv_13/depthwise/weights_quant/min"
      }
    }
  }
}
node {
  name: "FeatureExtractor/MobilenetV2/expanded_conv_13/expand/act_quant/max"
  op: "Const"
  attr {
    key: "dtype"
    value {
      type: DT_FLOAT
    }
  }
  attr {
    key: "value"
    value {
      tensor {
        dtype: DT_FLOAT
        tensor_shape {
        }
        float_val: 5.99976158
      }
    }
  }
}
node {
  name: "FeatureExtractor/MobilenetV2/expanded_conv_13/expand/act_quant/max/read"
  op: "Identity"
  input: "FeatureExtractor/MobilenetV2/expanded_conv_13/expand/act_quant/max"
  attr {
    key: "T"
    value {
      type: DT_FLOAT
    }
  }
  attr {
    key: "_class"
    value {
      list {
        s: "loc:@FeatureExtractor/MobilenetV2/expanded_conv_13/expand/act_quant/max"
      }
    }
  }
}
node {
  name: "FeatureExtractor/MobilenetV2/expanded_conv_13/expand/act_quant/min"
  op: "Const"
  attr {
    key: "dtype"
    value {
      type: DT_FLOAT
    }
  }
  attr {
    key: "value"
    value {
      tensor {
        dtype: DT_FLOAT
        tensor_shape {
        }
        float_val: 0
      }
    }
  }
}
node {
  name: "FeatureExtractor/MobilenetV2/expanded_conv_13/expand/act_quant/min/read"
  op: "Identity"
  input: "FeatureExtractor/MobilenetV2/expanded_conv_13/expand/act_quant/min"
  attr {
    key: "T"
    value {
      type: DT_FLOAT
    }
  }
  attr {
    key: "_class"
    value {
      list {
        s: "loc:@FeatureExtractor/MobilenetV2/expanded_conv_13/expand/act_quant/min"
      }
    }
  }
}
node {
  name: "FeatureExtractor/MobilenetV2/expanded_conv_13/expand/weights_quant/max"
  op: "Const"
  attr {
    key: "dtype"
    value {
      type: DT_FLOAT
    }
  }
  attr {
    key: "value"
    value {
      tensor {
        dtype: DT_FLOAT
        tensor_shape {
        }
        float_val: 0.148850456
      }
    }
  }
}
node {
  name: "FeatureExtractor/MobilenetV2/expanded_conv_13/expand/weights_quant/max/read"
  op: "Identity"
  input: "FeatureExtractor/MobilenetV2/expanded_conv_13/expand/weights_quant/max"
  attr {
    key: "T"
    value {
      type: DT_FLOAT
    }
  }
  attr {
    key: "_class"
    value {
      list {
        s: "loc:@FeatureExtractor/MobilenetV2/expanded_conv_13/expand/weights_quant/max"
      }
    }
  }
}
node {
  name: "FeatureExtractor/MobilenetV2/expanded_conv_13/expand/weights_quant/min"
  op: "Const"
  attr {
    key: "dtype"
    value {
      type: DT_FLOAT
    }
  }
  attr {
    key: "value"
    value {
      tensor {
        dtype: DT_FLOAT
        tensor_shape {
        }
        float_val: -0.161015525
      }
    }
  }
}
node {
  name: "FeatureExtractor/MobilenetV2/expanded_conv_13/expand/weights_quant/min/read"
  op: "Identity"
  input: "FeatureExtractor/MobilenetV2/expanded_conv_13/expand/weights_quant/min"
  attr {
    key: "T"
    value {
      type: DT_FLOAT
    }
  }
  attr {
    key: "_class"
    value {
      list {
        s: "loc:@FeatureExtractor/MobilenetV2/expanded_conv_13/expand/weights_quant/min"
      }
    }
  }
}
node {
  name: "FeatureExtractor/MobilenetV2/expanded_conv_12/depthwise/act_quant/max"
  op: "Const"
  attr {
    key: "dtype"
    value {
      type: DT_FLOAT
    }
  }
  attr {
    key: "value"
    value {
      tensor {
        dtype: DT_FLOAT
        tensor_shape {
        }
        float_val: 5.99976158
      }
    }
  }
}
node {
  name: "FeatureExtractor/MobilenetV2/expanded_conv_12/depthwise/act_quant/max/read"
  op: "Identity"
  input: "FeatureExtractor/MobilenetV2/expanded_conv_12/depthwise/act_quant/max"
  attr {
    key: "T"
    value {
      type: DT_FLOAT
    }
  }
  attr {
    key: "_class"
    value {
      list {
        s: "loc:@FeatureExtractor/MobilenetV2/expanded_conv_12/depthwise/act_quant/max"
      }
    }
  }
}
node {
  name: "FeatureExtractor/MobilenetV2/expanded_conv_12/depthwise/act_quant/min"
  op: "Const"
  attr {
    key: "dtype"
    value {
      type: DT_FLOAT
    }
  }
  attr {
    key: "value"
    value {
      tensor {
        dtype: DT_FLOAT
        tensor_shape {
        }
        float_val: 0
      }
    }
  }
}
node {
  name: "FeatureExtractor/MobilenetV2/expanded_conv_12/depthwise/act_quant/min/read"
  op: "Identity"
  input: "FeatureExtractor/MobilenetV2/expanded_conv_12/depthwise/act_quant/min"
  attr {
    key: "T"
    value {
      type: DT_FLOAT
    }
  }
  attr {
    key: "_class"
    value {
      list {
        s: "loc:@FeatureExtractor/MobilenetV2/expanded_conv_12/depthwise/act_quant/min"
      }
    }
  }
}
node {
  name: "FeatureExtractor/MobilenetV2/expanded_conv_12/depthwise/weights_quant/max"
  op: "Const"
  attr {
    key: "dtype"
    value {
      type: DT_FLOAT
    }
  }
  attr {
    key: "value"
    value {
      tensor {
        dtype: DT_FLOAT
        tensor_shape {
        }
        float_val: 5.54674911
      }
    }
  }
}
node {
  name: "FeatureExtractor/MobilenetV2/expanded_conv_12/depthwise/weights_quant/max/read"
  op: "Identity"
  input: "FeatureExtractor/MobilenetV2/expanded_conv_12/depthwise/weights_quant/max"
  attr {
    key: "T"
    value {
      type: DT_FLOAT
    }
  }
  attr {
    key: "_class"
    value {
      list {
        s: "loc:@FeatureExtractor/MobilenetV2/expanded_conv_12/depthwise/weights_quant/max"
      }
    }
  }
}
node {
  name: "FeatureExtractor/MobilenetV2/expanded_conv_12/depthwise/weights_quant/min"
  op: "Const"
  attr {
    key: "dtype"
    value {
      type: DT_FLOAT
    }
  }
  attr {
    key: "value"
    value {
      tensor {
        dtype: DT_FLOAT
        tensor_shape {
        }
        float_val: -5.27019644
      }
    }
  }
}
node {
  name: "FeatureExtractor/MobilenetV2/expanded_conv_12/depthwise/weights_quant/min/read"
  op: "Identity"
  input: "FeatureExtractor/MobilenetV2/expanded_conv_12/depthwise/weights_quant/min"
  attr {
    key: "T"
    value {
      type: DT_FLOAT
    }
  }
  attr {
    key: "_class"
    value {
      list {
        s: "loc:@FeatureExtractor/MobilenetV2/expanded_conv_12/depthwise/weights_quant/min"
      }
    }
  }
}
node {
  name: "FeatureExtractor/MobilenetV2/expanded_conv_12/expand/act_quant/max"
  op: "Const"
  attr {
    key: "dtype"
    value {
      type: DT_FLOAT
    }
  }
  attr {
    key: "value"
    value {
      tensor {
        dtype: DT_FLOAT
        tensor_shape {
        }
        float_val: 5.99976158
      }
    }
  }
}
node {
  name: "FeatureExtractor/MobilenetV2/expanded_conv_12/expand/act_quant/max/read"
  op: "Identity"
  input: "FeatureExtractor/MobilenetV2/expanded_conv_12/expand/act_quant/max"
  attr {
    key: "T"
    value {
      type: DT_FLOAT
    }
  }
  attr {
    key: "_class"
    value {
      list {
        s: "loc:@FeatureExtractor/MobilenetV2/expanded_conv_12/expand/act_quant/max"
      }
    }
  }
}
node {
  name: "FeatureExtractor/MobilenetV2/expanded_conv_12/expand/act_quant/min"
  op: "Const"
  attr {
    key: "dtype"
    value {
      type: DT_FLOAT
    }
  }
  attr {
    key: "value"
    value {
      tensor {
        dtype: DT_FLOAT
        tensor_shape {
        }
        float_val: 0
      }
    }
  }
}
node {
  name: "FeatureExtractor/MobilenetV2/expanded_conv_12/expand/act_quant/min/read"
  op: "Identity"
  input: "FeatureExtractor/MobilenetV2/expanded_conv_12/expand/act_quant/min"
  attr {
    key: "T"
    value {
      type: DT_FLOAT
    }
  }
  attr {
    key: "_class"
    value {
      list {
        s: "loc:@FeatureExtractor/MobilenetV2/expanded_conv_12/expand/act_quant/min"
      }
    }
  }
}
node {
  name: "FeatureExtractor/MobilenetV2/expanded_conv_12/expand/weights_quant/max"
  op: "Const"
  attr {
    key: "dtype"
    value {
      type: DT_FLOAT
    }
  }
  attr {
    key: "value"
    value {
      tensor {
        dtype: DT_FLOAT
        tensor_shape {
        }
        float_val: 0.134290129
      }
    }
  }
}
node {
  name: "FeatureExtractor/MobilenetV2/expanded_conv_12/expand/weights_quant/max/read"
  op: "Identity"
  input: "FeatureExtractor/MobilenetV2/expanded_conv_12/expand/weights_quant/max"
  attr {
    key: "T"
    value {
      type: DT_FLOAT
    }
  }
  attr {
    key: "_class"
    value {
      list {
        s: "loc:@FeatureExtractor/MobilenetV2/expanded_conv_12/expand/weights_quant/max"
      }
    }
  }
}
node {
  name: "FeatureExtractor/MobilenetV2/expanded_conv_12/expand/weights_quant/min"
  op: "Const"
  attr {
    key: "dtype"
    value {
      type: DT_FLOAT
    }
  }
  attr {
    key: "value"
    value {
      tensor {
        dtype: DT_FLOAT
        tensor_shape {
        }
        float_val: -0.107692637
      }
    }
  }
}
node {
  name: "FeatureExtractor/MobilenetV2/expanded_conv_12/expand/weights_quant/min/read"
  op: "Identity"
  input: "FeatureExtractor/MobilenetV2/expanded_conv_12/expand/weights_quant/min"
  attr {
    key: "T"
    value {
      type: DT_FLOAT
    }
  }
  attr {
    key: "_class"
    value {
      list {
        s: "loc:@FeatureExtractor/MobilenetV2/expanded_conv_12/expand/weights_quant/min"
      }
    }
  }
}
node {
  name: "FeatureExtractor/MobilenetV2/expanded_conv_11/depthwise/act_quant/max"
  op: "Const"
  attr {
    key: "dtype"
    value {
      type: DT_FLOAT
    }
  }
  attr {
    key: "value"
    value {
      tensor {
        dtype: DT_FLOAT
        tensor_shape {
        }
        float_val: 5.99976158
      }
    }
  }
}
node {
  name: "FeatureExtractor/MobilenetV2/expanded_conv_11/depthwise/act_quant/max/read"
  op: "Identity"
  input: "FeatureExtractor/MobilenetV2/expanded_conv_11/depthwise/act_quant/max"
  attr {
    key: "T"
    value {
      type: DT_FLOAT
    }
  }
  attr {
    key: "_class"
    value {
      list {
        s: "loc:@FeatureExtractor/MobilenetV2/expanded_conv_11/depthwise/act_quant/max"
      }
    }
  }
}
node {
  name: "FeatureExtractor/MobilenetV2/expanded_conv_11/depthwise/act_quant/min"
  op: "Const"
  attr {
    key: "dtype"
    value {
      type: DT_FLOAT
    }
  }
  attr {
    key: "value"
    value {
      tensor {
        dtype: DT_FLOAT
        tensor_shape {
        }
        float_val: 0
      }
    }
  }
}
node {
  name: "FeatureExtractor/MobilenetV2/expanded_conv_11/depthwise/act_quant/min/read"
  op: "Identity"
  input: "FeatureExtractor/MobilenetV2/expanded_conv_11/depthwise/act_quant/min"
  attr {
    key: "T"
    value {
      type: DT_FLOAT
    }
  }
  attr {
    key: "_class"
    value {
      list {
        s: "loc:@FeatureExtractor/MobilenetV2/expanded_conv_11/depthwise/act_quant/min"
      }
    }
  }
}
node {
  name: "FeatureExtractor/MobilenetV2/expanded_conv_11/depthwise/weights_quant/max"
  op: "Const"
  attr {
    key: "dtype"
    value {
      type: DT_FLOAT
    }
  }
  attr {
    key: "value"
    value {
      tensor {
        dtype: DT_FLOAT
        tensor_shape {
        }
        float_val: 6.69482803
      }
    }
  }
}
node {
  name: "FeatureExtractor/MobilenetV2/expanded_conv_11/depthwise/weights_quant/max/read"
  op: "Identity"
  input: "FeatureExtractor/MobilenetV2/expanded_conv_11/depthwise/weights_quant/max"
  attr {
    key: "T"
    value {
      type: DT_FLOAT
    }
  }
  attr {
    key: "_class"
    value {
      list {
        s: "loc:@FeatureExtractor/MobilenetV2/expanded_conv_11/depthwise/weights_quant/max"
      }
    }
  }
}
node {
  name: "FeatureExtractor/MobilenetV2/expanded_conv_11/depthwise/weights_quant/min"
  op: "Const"
  attr {
    key: "dtype"
    value {
      type: DT_FLOAT
    }
  }
  attr {
    key: "value"
    value {
      tensor {
        dtype: DT_FLOAT
        tensor_shape {
        }
        float_val: -5.4722209
      }
    }
  }
}
node {
  name: "FeatureExtractor/MobilenetV2/expanded_conv_11/depthwise/weights_quant/min/read"
  op: "Identity"
  input: "FeatureExtractor/MobilenetV2/expanded_conv_11/depthwise/weights_quant/min"
  attr {
    key: "T"
    value {
      type: DT_FLOAT
    }
  }
  attr {
    key: "_class"
    value {
      list {
        s: "loc:@FeatureExtractor/MobilenetV2/expanded_conv_11/depthwise/weights_quant/min"
      }
    }
  }
}
node {
  name: "FeatureExtractor/MobilenetV2/expanded_conv_11/expand/act_quant/max"
  op: "Const"
  attr {
    key: "dtype"
    value {
      type: DT_FLOAT
    }
  }
  attr {
    key: "value"
    value {
      tensor {
        dtype: DT_FLOAT
        tensor_shape {
        }
        float_val: 5.99976158
      }
    }
  }
}
node {
  name: "FeatureExtractor/MobilenetV2/expanded_conv_11/expand/act_quant/max/read"
  op: "Identity"
  input: "FeatureExtractor/MobilenetV2/expanded_conv_11/expand/act_quant/max"
  attr {
    key: "T"
    value {
      type: DT_FLOAT
    }
  }
  attr {
    key: "_class"
    value {
      list {
        s: "loc:@FeatureExtractor/MobilenetV2/expanded_conv_11/expand/act_quant/max"
      }
    }
  }
}
node {
  name: "FeatureExtractor/MobilenetV2/expanded_conv_11/expand/act_quant/min"
  op: "Const"
  attr {
    key: "dtype"
    value {
      type: DT_FLOAT
    }
  }
  attr {
    key: "value"
    value {
      tensor {
        dtype: DT_FLOAT
        tensor_shape {
        }
        float_val: 0
      }
    }
  }
}
node {
  name: "FeatureExtractor/MobilenetV2/expanded_conv_11/expand/act_quant/min/read"
  op: "Identity"
  input: "FeatureExtractor/MobilenetV2/expanded_conv_11/expand/act_quant/min"
  attr {
    key: "T"
    value {
      type: DT_FLOAT
    }
  }
  attr {
    key: "_class"
    value {
      list {
        s: "loc:@FeatureExtractor/MobilenetV2/expanded_conv_11/expand/act_quant/min"
      }
    }
  }
}
node {
  name: "FeatureExtractor/MobilenetV2/expanded_conv_11/expand/weights_quant/max"
  op: "Const"
  attr {
    key: "dtype"
    value {
      type: DT_FLOAT
    }
  }
  attr {
    key: "value"
    value {
      tensor {
        dtype: DT_FLOAT
        tensor_shape {
        }
        float_val: 0.225216731
      }
    }
  }
}
node {
  name: "FeatureExtractor/MobilenetV2/expanded_conv_11/expand/weights_quant/max/read"
  op: "Identity"
  input: "FeatureExtractor/MobilenetV2/expanded_conv_11/expand/weights_quant/max"
  attr {
    key: "T"
    value {
      type: DT_FLOAT
    }
  }
  attr {
    key: "_class"
    value {
      list {
        s: "loc:@FeatureExtractor/MobilenetV2/expanded_conv_11/expand/weights_quant/max"
      }
    }
  }
}
node {
  name: "FeatureExtractor/MobilenetV2/expanded_conv_11/expand/weights_quant/min"
  op: "Const"
  attr {
    key: "dtype"
    value {
      type: DT_FLOAT
    }
  }
  attr {
    key: "value"
    value {
      tensor {
        dtype: DT_FLOAT
        tensor_shape {
        }
        float_val: -0.300102562
      }
    }
  }
}
node {
  name: "FeatureExtractor/MobilenetV2/expanded_conv_11/expand/weights_quant/min/read"
  op: "Identity"
  input: "FeatureExtractor/MobilenetV2/expanded_conv_11/expand/weights_quant/min"
  attr {
    key: "T"
    value {
      type: DT_FLOAT
    }
  }
  attr {
    key: "_class"
    value {
      list {
        s: "loc:@FeatureExtractor/MobilenetV2/expanded_conv_11/expand/weights_quant/min"
      }
    }
  }
}
node {
  name: "FeatureExtractor/MobilenetV2/expanded_conv_10/project/act_quant/max"
  op: "Const"
  attr {
    key: "dtype"
    value {
      type: DT_FLOAT
    }
  }
  attr {
    key: "value"
    value {
      tensor {
        dtype: DT_FLOAT
        tensor_shape {
        }
        float_val: 18.3075943
      }
    }
  }
}
node {
  name: "FeatureExtractor/MobilenetV2/expanded_conv_10/project/act_quant/max/read"
  op: "Identity"
  input: "FeatureExtractor/MobilenetV2/expanded_conv_10/project/act_quant/max"
  attr {
    key: "T"
    value {
      type: DT_FLOAT
    }
  }
  attr {
    key: "_class"
    value {
      list {
        s: "loc:@FeatureExtractor/MobilenetV2/expanded_conv_10/project/act_quant/max"
      }
    }
  }
}
node {
  name: "FeatureExtractor/MobilenetV2/expanded_conv_10/project/act_quant/min"
  op: "Const"
  attr {
    key: "dtype"
    value {
      type: DT_FLOAT
    }
  }
  attr {
    key: "value"
    value {
      tensor {
        dtype: DT_FLOAT
        tensor_shape {
        }
        float_val: -20.2801743
      }
    }
  }
}
node {
  name: "FeatureExtractor/MobilenetV2/expanded_conv_10/project/act_quant/min/read"
  op: "Identity"
  input: "FeatureExtractor/MobilenetV2/expanded_conv_10/project/act_quant/min"
  attr {
    key: "T"
    value {
      type: DT_FLOAT
    }
  }
  attr {
    key: "_class"
    value {
      list {
        s: "loc:@FeatureExtractor/MobilenetV2/expanded_conv_10/project/act_quant/min"
      }
    }
  }
}
node {
  name: "FeatureExtractor/MobilenetV2/expanded_conv_10/project/weights_quant/max"
  op: "Const"
  attr {
    key: "dtype"
    value {
      type: DT_FLOAT
    }
  }
  attr {
    key: "value"
    value {
      tensor {
        dtype: DT_FLOAT
        tensor_shape {
        }
        float_val: 0.683820605
      }
    }
  }
}
node {
  name: "FeatureExtractor/MobilenetV2/expanded_conv_10/project/weights_quant/max/read"
  op: "Identity"
  input: "FeatureExtractor/MobilenetV2/expanded_conv_10/project/weights_quant/max"
  attr {
    key: "T"
    value {
      type: DT_FLOAT
    }
  }
  attr {
    key: "_class"
    value {
      list {
        s: "loc:@FeatureExtractor/MobilenetV2/expanded_conv_10/project/weights_quant/max"
      }
    }
  }
}
node {
  name: "FeatureExtractor/MobilenetV2/expanded_conv_10/project/weights_quant/min"
  op: "Const"
  attr {
    key: "dtype"
    value {
      type: DT_FLOAT
    }
  }
  attr {
    key: "value"
    value {
      tensor {
        dtype: DT_FLOAT
        tensor_shape {
        }
        float_val: -1.08403111
      }
    }
  }
}
node {
  name: "FeatureExtractor/MobilenetV2/expanded_conv_10/project/weights_quant/min/read"
  op: "Identity"
  input: "FeatureExtractor/MobilenetV2/expanded_conv_10/project/weights_quant/min"
  attr {
    key: "T"
    value {
      type: DT_FLOAT
    }
  }
  attr {
    key: "_class"
    value {
      list {
        s: "loc:@FeatureExtractor/MobilenetV2/expanded_conv_10/project/weights_quant/min"
      }
    }
  }
}
node {
  name: "FeatureExtractor/MobilenetV2/expanded_conv_10/depthwise/act_quant/max"
  op: "Const"
  attr {
    key: "dtype"
    value {
      type: DT_FLOAT
    }
  }
  attr {
    key: "value"
    value {
      tensor {
        dtype: DT_FLOAT
        tensor_shape {
        }
        float_val: 5.99976158
      }
    }
  }
}
node {
  name: "FeatureExtractor/MobilenetV2/expanded_conv_10/depthwise/act_quant/max/read"
  op: "Identity"
  input: "FeatureExtractor/MobilenetV2/expanded_conv_10/depthwise/act_quant/max"
  attr {
    key: "T"
    value {
      type: DT_FLOAT
    }
  }
  attr {
    key: "_class"
    value {
      list {
        s: "loc:@FeatureExtractor/MobilenetV2/expanded_conv_10/depthwise/act_quant/max"
      }
    }
  }
}
node {
  name: "FeatureExtractor/MobilenetV2/expanded_conv_10/depthwise/act_quant/min"
  op: "Const"
  attr {
    key: "dtype"
    value {
      type: DT_FLOAT
    }
  }
  attr {
    key: "value"
    value {
      tensor {
        dtype: DT_FLOAT
        tensor_shape {
        }
        float_val: 0
      }
    }
  }
}
node {
  name: "FeatureExtractor/MobilenetV2/expanded_conv_10/depthwise/act_quant/min/read"
  op: "Identity"
  input: "FeatureExtractor/MobilenetV2/expanded_conv_10/depthwise/act_quant/min"
  attr {
    key: "T"
    value {
      type: DT_FLOAT
    }
  }
  attr {
    key: "_class"
    value {
      list {
        s: "loc:@FeatureExtractor/MobilenetV2/expanded_conv_10/depthwise/act_quant/min"
      }
    }
  }
}
node {
  name: "FeatureExtractor/MobilenetV2/expanded_conv_10/depthwise/weights_quant/max"
  op: "Const"
  attr {
    key: "dtype"
    value {
      type: DT_FLOAT
    }
  }
  attr {
    key: "value"
    value {
      tensor {
        dtype: DT_FLOAT
        tensor_shape {
        }
        float_val: 6.68883371
      }
    }
  }
}
node {
  name: "FeatureExtractor/MobilenetV2/expanded_conv_10/depthwise/weights_quant/max/read"
  op: "Identity"
  input: "FeatureExtractor/MobilenetV2/expanded_conv_10/depthwise/weights_quant/max"
  attr {
    key: "T"
    value {
      type: DT_FLOAT
    }
  }
  attr {
    key: "_class"
    value {
      list {
        s: "loc:@FeatureExtractor/MobilenetV2/expanded_conv_10/depthwise/weights_quant/max"
      }
    }
  }
}
node {
  name: "FeatureExtractor/MobilenetV2/expanded_conv_10/depthwise/weights_quant/min"
  op: "Const"
  attr {
    key: "dtype"
    value {
      type: DT_FLOAT
    }
  }
  attr {
    key: "value"
    value {
      tensor {
        dtype: DT_FLOAT
        tensor_shape {
        }
        float_val: -4.53975964
      }
    }
  }
}
node {
  name: "FeatureExtractor/MobilenetV2/expanded_conv_10/depthwise/weights_quant/min/read"
  op: "Identity"
  input: "FeatureExtractor/MobilenetV2/expanded_conv_10/depthwise/weights_quant/min"
  attr {
    key: "T"
    value {
      type: DT_FLOAT
    }
  }
  attr {
    key: "_class"
    value {
      list {
        s: "loc:@FeatureExtractor/MobilenetV2/expanded_conv_10/depthwise/weights_quant/min"
      }
    }
  }
}
node {
  name: "FeatureExtractor/MobilenetV2/expanded_conv_10/expand/act_quant/max"
  op: "Const"
  attr {
    key: "dtype"
    value {
      type: DT_FLOAT
    }
  }
  attr {
    key: "value"
    value {
      tensor {
        dtype: DT_FLOAT
        tensor_shape {
        }
        float_val: 5.99976158
      }
    }
  }
}
node {
  name: "FeatureExtractor/MobilenetV2/expanded_conv_10/expand/act_quant/max/read"
  op: "Identity"
  input: "FeatureExtractor/MobilenetV2/expanded_conv_10/expand/act_quant/max"
  attr {
    key: "T"
    value {
      type: DT_FLOAT
    }
  }
  attr {
    key: "_class"
    value {
      list {
        s: "loc:@FeatureExtractor/MobilenetV2/expanded_conv_10/expand/act_quant/max"
      }
    }
  }
}
node {
  name: "FeatureExtractor/MobilenetV2/expanded_conv_10/expand/act_quant/min"
  op: "Const"
  attr {
    key: "dtype"
    value {
      type: DT_FLOAT
    }
  }
  attr {
    key: "value"
    value {
      tensor {
        dtype: DT_FLOAT
        tensor_shape {
        }
        float_val: 0
      }
    }
  }
}
node {
  name: "FeatureExtractor/MobilenetV2/expanded_conv_10/expand/act_quant/min/read"
  op: "Identity"
  input: "FeatureExtractor/MobilenetV2/expanded_conv_10/expand/act_quant/min"
  attr {
    key: "T"
    value {
      type: DT_FLOAT
    }
  }
  attr {
    key: "_class"
    value {
      list {
        s: "loc:@FeatureExtractor/MobilenetV2/expanded_conv_10/expand/act_quant/min"
      }
    }
  }
}
node {
  name: "FeatureExtractor/MobilenetV2/expanded_conv_10/expand/weights_quant/max"
  op: "Const"
  attr {
    key: "dtype"
    value {
      type: DT_FLOAT
    }
  }
  attr {
    key: "value"
    value {
      tensor {
        dtype: DT_FLOAT
        tensor_shape {
        }
        float_val: 0.123455778
      }
    }
  }
}
node {
  name: "FeatureExtractor/MobilenetV2/expanded_conv_10/expand/weights_quant/max/read"
  op: "Identity"
  input: "FeatureExtractor/MobilenetV2/expanded_conv_10/expand/weights_quant/max"
  attr {
    key: "T"
    value {
      type: DT_FLOAT
    }
  }
  attr {
    key: "_class"
    value {
      list {
        s: "loc:@FeatureExtractor/MobilenetV2/expanded_conv_10/expand/weights_quant/max"
      }
    }
  }
}
node {
  name: "FeatureExtractor/MobilenetV2/expanded_conv_10/expand/weights_quant/min"
  op: "Const"
  attr {
    key: "dtype"
    value {
      type: DT_FLOAT
    }
  }
  attr {
    key: "value"
    value {
      tensor {
        dtype: DT_FLOAT
        tensor_shape {
        }
        float_val: -0.113868617
      }
    }
  }
}
node {
  name: "FeatureExtractor/MobilenetV2/expanded_conv_10/expand/weights_quant/min/read"
  op: "Identity"
  input: "FeatureExtractor/MobilenetV2/expanded_conv_10/expand/weights_quant/min"
  attr {
    key: "T"
    value {
      type: DT_FLOAT
    }
  }
  attr {
    key: "_class"
    value {
      list {
        s: "loc:@FeatureExtractor/MobilenetV2/expanded_conv_10/expand/weights_quant/min"
      }
    }
  }
}
node {
  name: "FeatureExtractor/MobilenetV2/expanded_conv_9/depthwise/act_quant/max"
  op: "Const"
  attr {
    key: "dtype"
    value {
      type: DT_FLOAT
    }
  }
  attr {
    key: "value"
    value {
      tensor {
        dtype: DT_FLOAT
        tensor_shape {
        }
        float_val: 5.99976158
      }
    }
  }
}
node {
  name: "FeatureExtractor/MobilenetV2/expanded_conv_9/depthwise/act_quant/max/read"
  op: "Identity"
  input: "FeatureExtractor/MobilenetV2/expanded_conv_9/depthwise/act_quant/max"
  attr {
    key: "T"
    value {
      type: DT_FLOAT
    }
  }
  attr {
    key: "_class"
    value {
      list {
        s: "loc:@FeatureExtractor/MobilenetV2/expanded_conv_9/depthwise/act_quant/max"
      }
    }
  }
}
node {
  name: "FeatureExtractor/MobilenetV2/expanded_conv_9/depthwise/act_quant/min"
  op: "Const"
  attr {
    key: "dtype"
    value {
      type: DT_FLOAT
    }
  }
  attr {
    key: "value"
    value {
      tensor {
        dtype: DT_FLOAT
        tensor_shape {
        }
        float_val: 0
      }
    }
  }
}
node {
  name: "FeatureExtractor/MobilenetV2/expanded_conv_9/depthwise/act_quant/min/read"
  op: "Identity"
  input: "FeatureExtractor/MobilenetV2/expanded_conv_9/depthwise/act_quant/min"
  attr {
    key: "T"
    value {
      type: DT_FLOAT
    }
  }
  attr {
    key: "_class"
    value {
      list {
        s: "loc:@FeatureExtractor/MobilenetV2/expanded_conv_9/depthwise/act_quant/min"
      }
    }
  }
}
node {
  name: "FeatureExtractor/MobilenetV2/expanded_conv_9/depthwise/weights_quant/max"
  op: "Const"
  attr {
    key: "dtype"
    value {
      type: DT_FLOAT
    }
  }
  attr {
    key: "value"
    value {
      tensor {
        dtype: DT_FLOAT
        tensor_shape {
        }
        float_val: 5.39263868
      }
    }
  }
}
node {
  name: "FeatureExtractor/MobilenetV2/expanded_conv_9/depthwise/weights_quant/max/read"
  op: "Identity"
  input: "FeatureExtractor/MobilenetV2/expanded_conv_9/depthwise/weights_quant/max"
  attr {
    key: "T"
    value {
      type: DT_FLOAT
    }
  }
  attr {
    key: "_class"
    value {
      list {
        s: "loc:@FeatureExtractor/MobilenetV2/expanded_conv_9/depthwise/weights_quant/max"
      }
    }
  }
}
node {
  name: "FeatureExtractor/MobilenetV2/expanded_conv_9/depthwise/weights_quant/min"
  op: "Const"
  attr {
    key: "dtype"
    value {
      type: DT_FLOAT
    }
  }
  attr {
    key: "value"
    value {
      tensor {
        dtype: DT_FLOAT
        tensor_shape {
        }
        float_val: -4.52589
      }
    }
  }
}
node {
  name: "FeatureExtractor/MobilenetV2/expanded_conv_9/depthwise/weights_quant/min/read"
  op: "Identity"
  input: "FeatureExtractor/MobilenetV2/expanded_conv_9/depthwise/weights_quant/min"
  attr {
    key: "T"
    value {
      type: DT_FLOAT
    }
  }
  attr {
    key: "_class"
    value {
      list {
        s: "loc:@FeatureExtractor/MobilenetV2/expanded_conv_9/depthwise/weights_quant/min"
      }
    }
  }
}
node {
  name: "FeatureExtractor/MobilenetV2/expanded_conv_9/expand/act_quant/max"
  op: "Const"
  attr {
    key: "dtype"
    value {
      type: DT_FLOAT
    }
  }
  attr {
    key: "value"
    value {
      tensor {
        dtype: DT_FLOAT
        tensor_shape {
        }
        float_val: 5.99976158
      }
    }
  }
}
node {
  name: "FeatureExtractor/MobilenetV2/expanded_conv_9/expand/act_quant/max/read"
  op: "Identity"
  input: "FeatureExtractor/MobilenetV2/expanded_conv_9/expand/act_quant/max"
  attr {
    key: "T"
    value {
      type: DT_FLOAT
    }
  }
  attr {
    key: "_class"
    value {
      list {
        s: "loc:@FeatureExtractor/MobilenetV2/expanded_conv_9/expand/act_quant/max"
      }
    }
  }
}
node {
  name: "FeatureExtractor/MobilenetV2/expanded_conv_9/expand/act_quant/min"
  op: "Const"
  attr {
    key: "dtype"
    value {
      type: DT_FLOAT
    }
  }
  attr {
    key: "value"
    value {
      tensor {
        dtype: DT_FLOAT
        tensor_shape {
        }
        float_val: 0
      }
    }
  }
}
node {
  name: "FeatureExtractor/MobilenetV2/expanded_conv_9/expand/act_quant/min/read"
  op: "Identity"
  input: "FeatureExtractor/MobilenetV2/expanded_conv_9/expand/act_quant/min"
  attr {
    key: "T"
    value {
      type: DT_FLOAT
    }
  }
  attr {
    key: "_class"
    value {
      list {
        s: "loc:@FeatureExtractor/MobilenetV2/expanded_conv_9/expand/act_quant/min"
      }
    }
  }
}
node {
  name: "FeatureExtractor/MobilenetV2/expanded_conv_9/expand/weights_quant/max"
  op: "Const"
  attr {
    key: "dtype"
    value {
      type: DT_FLOAT
    }
  }
  attr {
    key: "value"
    value {
      tensor {
        dtype: DT_FLOAT
        tensor_shape {
        }
        float_val: 0.28741461
      }
    }
  }
}
node {
  name: "FeatureExtractor/MobilenetV2/expanded_conv_9/expand/weights_quant/max/read"
  op: "Identity"
  input: "FeatureExtractor/MobilenetV2/expanded_conv_9/expand/weights_quant/max"
  attr {
    key: "T"
    value {
      type: DT_FLOAT
    }
  }
  attr {
    key: "_class"
    value {
      list {
        s: "loc:@FeatureExtractor/MobilenetV2/expanded_conv_9/expand/weights_quant/max"
      }
    }
  }
}
node {
  name: "FeatureExtractor/MobilenetV2/expanded_conv_9/expand/weights_quant/min"
  op: "Const"
  attr {
    key: "dtype"
    value {
      type: DT_FLOAT
    }
  }
  attr {
    key: "value"
    value {
      tensor {
        dtype: DT_FLOAT
        tensor_shape {
        }
        float_val: -0.223819971
      }
    }
  }
}
node {
  name: "FeatureExtractor/MobilenetV2/expanded_conv_9/expand/weights_quant/min/read"
  op: "Identity"
  input: "FeatureExtractor/MobilenetV2/expanded_conv_9/expand/weights_quant/min"
  attr {
    key: "T"
    value {
      type: DT_FLOAT
    }
  }
  attr {
    key: "_class"
    value {
      list {
        s: "loc:@FeatureExtractor/MobilenetV2/expanded_conv_9/expand/weights_quant/min"
      }
    }
  }
}
node {
  name: "FeatureExtractor/MobilenetV2/expanded_conv_8/depthwise/act_quant/max"
  op: "Const"
  attr {
    key: "dtype"
    value {
      type: DT_FLOAT
    }
  }
  attr {
    key: "value"
    value {
      tensor {
        dtype: DT_FLOAT
        tensor_shape {
        }
        float_val: 5.99976158
      }
    }
  }
}
node {
  name: "FeatureExtractor/MobilenetV2/expanded_conv_8/depthwise/act_quant/max/read"
  op: "Identity"
  input: "FeatureExtractor/MobilenetV2/expanded_conv_8/depthwise/act_quant/max"
  attr {
    key: "T"
    value {
      type: DT_FLOAT
    }
  }
  attr {
    key: "_class"
    value {
      list {
        s: "loc:@FeatureExtractor/MobilenetV2/expanded_conv_8/depthwise/act_quant/max"
      }
    }
  }
}
node {
  name: "FeatureExtractor/MobilenetV2/expanded_conv_8/depthwise/act_quant/min"
  op: "Const"
  attr {
    key: "dtype"
    value {
      type: DT_FLOAT
    }
  }
  attr {
    key: "value"
    value {
      tensor {
        dtype: DT_FLOAT
        tensor_shape {
        }
        float_val: 0
      }
    }
  }
}
node {
  name: "FeatureExtractor/MobilenetV2/expanded_conv_8/depthwise/act_quant/min/read"
  op: "Identity"
  input: "FeatureExtractor/MobilenetV2/expanded_conv_8/depthwise/act_quant/min"
  attr {
    key: "T"
    value {
      type: DT_FLOAT
    }
  }
  attr {
    key: "_class"
    value {
      list {
        s: "loc:@FeatureExtractor/MobilenetV2/expanded_conv_8/depthwise/act_quant/min"
      }
    }
  }
}
node {
  name: "FeatureExtractor/MobilenetV2/expanded_conv_8/depthwise/weights_quant/max"
  op: "Const"
  attr {
    key: "dtype"
    value {
      type: DT_FLOAT
    }
  }
  attr {
    key: "value"
    value {
      tensor {
        dtype: DT_FLOAT
        tensor_shape {
        }
        float_val: 5.65601778
      }
    }
  }
}
node {
  name: "FeatureExtractor/MobilenetV2/expanded_conv_8/depthwise/weights_quant/max/read"
  op: "Identity"
  input: "FeatureExtractor/MobilenetV2/expanded_conv_8/depthwise/weights_quant/max"
  attr {
    key: "T"
    value {
      type: DT_FLOAT
    }
  }
  attr {
    key: "_class"
    value {
      list {
        s: "loc:@FeatureExtractor/MobilenetV2/expanded_conv_8/depthwise/weights_quant/max"
      }
    }
  }
}
node {
  name: "FeatureExtractor/MobilenetV2/expanded_conv_8/depthwise/weights_quant/min"
  op: "Const"
  attr {
    key: "dtype"
    value {
      type: DT_FLOAT
    }
  }
  attr {
    key: "value"
    value {
      tensor {
        dtype: DT_FLOAT
        tensor_shape {
        }
        float_val: -2.57385159
      }
    }
  }
}
node {
  name: "FeatureExtractor/MobilenetV2/expanded_conv_8/depthwise/weights_quant/min/read"
  op: "Identity"
  input: "FeatureExtractor/MobilenetV2/expanded_conv_8/depthwise/weights_quant/min"
  attr {
    key: "T"
    value {
      type: DT_FLOAT
    }
  }
  attr {
    key: "_class"
    value {
      list {
        s: "loc:@FeatureExtractor/MobilenetV2/expanded_conv_8/depthwise/weights_quant/min"
      }
    }
  }
}
node {
  name: "FeatureExtractor/MobilenetV2/expanded_conv_8/expand/act_quant/max"
  op: "Const"
  attr {
    key: "dtype"
    value {
      type: DT_FLOAT
    }
  }
  attr {
    key: "value"
    value {
      tensor {
        dtype: DT_FLOAT
        tensor_shape {
        }
        float_val: 5.99976158
      }
    }
  }
}
node {
  name: "FeatureExtractor/MobilenetV2/expanded_conv_8/expand/act_quant/max/read"
  op: "Identity"
  input: "FeatureExtractor/MobilenetV2/expanded_conv_8/expand/act_quant/max"
  attr {
    key: "T"
    value {
      type: DT_FLOAT
    }
  }
  attr {
    key: "_class"
    value {
      list {
        s: "loc:@FeatureExtractor/MobilenetV2/expanded_conv_8/expand/act_quant/max"
      }
    }
  }
}
node {
  name: "FeatureExtractor/MobilenetV2/expanded_conv_8/expand/act_quant/min"
  op: "Const"
  attr {
    key: "dtype"
    value {
      type: DT_FLOAT
    }
  }
  attr {
    key: "value"
    value {
      tensor {
        dtype: DT_FLOAT
        tensor_shape {
        }
        float_val: 0
      }
    }
  }
}
node {
  name: "FeatureExtractor/MobilenetV2/expanded_conv_8/expand/act_quant/min/read"
  op: "Identity"
  input: "FeatureExtractor/MobilenetV2/expanded_conv_8/expand/act_quant/min"
  attr {
    key: "T"
    value {
      type: DT_FLOAT
    }
  }
  attr {
    key: "_class"
    value {
      list {
        s: "loc:@FeatureExtractor/MobilenetV2/expanded_conv_8/expand/act_quant/min"
      }
    }
  }
}
node {
  name: "FeatureExtractor/MobilenetV2/expanded_conv_8/expand/weights_quant/max"
  op: "Const"
  attr {
    key: "dtype"
    value {
      type: DT_FLOAT
    }
  }
  attr {
    key: "value"
    value {
      tensor {
        dtype: DT_FLOAT
        tensor_shape {
        }
        float_val: 0.357503414
      }
    }
  }
}
node {
  name: "FeatureExtractor/MobilenetV2/expanded_conv_8/expand/weights_quant/max/read"
  op: "Identity"
  input: "FeatureExtractor/MobilenetV2/expanded_conv_8/expand/weights_quant/max"
  attr {
    key: "T"
    value {
      type: DT_FLOAT
    }
  }
  attr {
    key: "_class"
    value {
      list {
        s: "loc:@FeatureExtractor/MobilenetV2/expanded_conv_8/expand/weights_quant/max"
      }
    }
  }
}
node {
  name: "FeatureExtractor/MobilenetV2/expanded_conv_8/expand/weights_quant/min"
  op: "Const"
  attr {
    key: "dtype"
    value {
      type: DT_FLOAT
    }
  }
  attr {
    key: "value"
    value {
      tensor {
        dtype: DT_FLOAT
        tensor_shape {
        }
        float_val: -0.308487684
      }
    }
  }
}
node {
  name: "FeatureExtractor/MobilenetV2/expanded_conv_8/expand/weights_quant/min/read"
  op: "Identity"
  input: "FeatureExtractor/MobilenetV2/expanded_conv_8/expand/weights_quant/min"
  attr {
    key: "T"
    value {
      type: DT_FLOAT
    }
  }
  attr {
    key: "_class"
    value {
      list {
        s: "loc:@FeatureExtractor/MobilenetV2/expanded_conv_8/expand/weights_quant/min"
      }
    }
  }
}
node {
  name: "FeatureExtractor/MobilenetV2/expanded_conv_7/depthwise/act_quant/max"
  op: "Const"
  attr {
    key: "dtype"
    value {
      type: DT_FLOAT
    }
  }
  attr {
    key: "value"
    value {
      tensor {
        dtype: DT_FLOAT
        tensor_shape {
        }
        float_val: 5.99976158
      }
    }
  }
}
node {
  name: "FeatureExtractor/MobilenetV2/expanded_conv_7/depthwise/act_quant/max/read"
  op: "Identity"
  input: "FeatureExtractor/MobilenetV2/expanded_conv_7/depthwise/act_quant/max"
  attr {
    key: "T"
    value {
      type: DT_FLOAT
    }
  }
  attr {
    key: "_class"
    value {
      list {
        s: "loc:@FeatureExtractor/MobilenetV2/expanded_conv_7/depthwise/act_quant/max"
      }
    }
  }
}
node {
  name: "FeatureExtractor/MobilenetV2/expanded_conv_7/depthwise/act_quant/min"
  op: "Const"
  attr {
    key: "dtype"
    value {
      type: DT_FLOAT
    }
  }
  attr {
    key: "value"
    value {
      tensor {
        dtype: DT_FLOAT
        tensor_shape {
        }
        float_val: 0
      }
    }
  }
}
node {
  name: "FeatureExtractor/MobilenetV2/expanded_conv_7/depthwise/act_quant/min/read"
  op: "Identity"
  input: "FeatureExtractor/MobilenetV2/expanded_conv_7/depthwise/act_quant/min"
  attr {
    key: "T"
    value {
      type: DT_FLOAT
    }
  }
  attr {
    key: "_class"
    value {
      list {
        s: "loc:@FeatureExtractor/MobilenetV2/expanded_conv_7/depthwise/act_quant/min"
      }
    }
  }
}
node {
  name: "FeatureExtractor/MobilenetV2/expanded_conv_7/depthwise/weights_quant/max"
  op: "Const"
  attr {
    key: "dtype"
    value {
      type: DT_FLOAT
    }
  }
  attr {
    key: "value"
    value {
      tensor {
        dtype: DT_FLOAT
        tensor_shape {
        }
        float_val: 4.78766775
      }
    }
  }
}
node {
  name: "FeatureExtractor/MobilenetV2/expanded_conv_7/depthwise/weights_quant/max/read"
  op: "Identity"
  input: "FeatureExtractor/MobilenetV2/expanded_conv_7/depthwise/weights_quant/max"
  attr {
    key: "T"
    value {
      type: DT_FLOAT
    }
  }
  attr {
    key: "_class"
    value {
      list {
        s: "loc:@FeatureExtractor/MobilenetV2/expanded_conv_7/depthwise/weights_quant/max"
      }
    }
  }
}
node {
  name: "FeatureExtractor/MobilenetV2/expanded_conv_7/depthwise/weights_quant/min"
  op: "Const"
  attr {
    key: "dtype"
    value {
      type: DT_FLOAT
    }
  }
  attr {
    key: "value"
    value {
      tensor {
        dtype: DT_FLOAT
        tensor_shape {
        }
        float_val: -5.50680971
      }
    }
  }
}
node {
  name: "FeatureExtractor/MobilenetV2/expanded_conv_7/depthwise/weights_quant/min/read"
  op: "Identity"
  input: "FeatureExtractor/MobilenetV2/expanded_conv_7/depthwise/weights_quant/min"
  attr {
    key: "T"
    value {
      type: DT_FLOAT
    }
  }
  attr {
    key: "_class"
    value {
      list {
        s: "loc:@FeatureExtractor/MobilenetV2/expanded_conv_7/depthwise/weights_quant/min"
      }
    }
  }
}
node {
  name: "FeatureExtractor/MobilenetV2/expanded_conv_7/expand/act_quant/max"
  op: "Const"
  attr {
    key: "dtype"
    value {
      type: DT_FLOAT
    }
  }
  attr {
    key: "value"
    value {
      tensor {
        dtype: DT_FLOAT
        tensor_shape {
        }
        float_val: 5.99976158
      }
    }
  }
}
node {
  name: "FeatureExtractor/MobilenetV2/expanded_conv_7/expand/act_quant/max/read"
  op: "Identity"
  input: "FeatureExtractor/MobilenetV2/expanded_conv_7/expand/act_quant/max"
  attr {
    key: "T"
    value {
      type: DT_FLOAT
    }
  }
  attr {
    key: "_class"
    value {
      list {
        s: "loc:@FeatureExtractor/MobilenetV2/expanded_conv_7/expand/act_quant/max"
      }
    }
  }
}
node {
  name: "FeatureExtractor/MobilenetV2/expanded_conv_7/expand/act_quant/min"
  op: "Const"
  attr {
    key: "dtype"
    value {
      type: DT_FLOAT
    }
  }
  attr {
    key: "value"
    value {
      tensor {
        dtype: DT_FLOAT
        tensor_shape {
        }
        float_val: 0
      }
    }
  }
}
node {
  name: "FeatureExtractor/MobilenetV2/expanded_conv_7/expand/act_quant/min/read"
  op: "Identity"
  input: "FeatureExtractor/MobilenetV2/expanded_conv_7/expand/act_quant/min"
  attr {
    key: "T"
    value {
      type: DT_FLOAT
    }
  }
  attr {
    key: "_class"
    value {
      list {
        s: "loc:@FeatureExtractor/MobilenetV2/expanded_conv_7/expand/act_quant/min"
      }
    }
  }
}
node {
  name: "FeatureExtractor/MobilenetV2/expanded_conv_7/expand/weights_quant/max"
  op: "Const"
  attr {
    key: "dtype"
    value {
      type: DT_FLOAT
    }
  }
  attr {
    key: "value"
    value {
      tensor {
        dtype: DT_FLOAT
        tensor_shape {
        }
        float_val: 0.176597208
      }
    }
  }
}
node {
  name: "FeatureExtractor/MobilenetV2/expanded_conv_7/expand/weights_quant/max/read"
  op: "Identity"
  input: "FeatureExtractor/MobilenetV2/expanded_conv_7/expand/weights_quant/max"
  attr {
    key: "T"
    value {
      type: DT_FLOAT
    }
  }
  attr {
    key: "_class"
    value {
      list {
        s: "loc:@FeatureExtractor/MobilenetV2/expanded_conv_7/expand/weights_quant/max"
      }
    }
  }
}
node {
  name: "FeatureExtractor/MobilenetV2/expanded_conv_7/expand/weights_quant/min"
  op: "Const"
  attr {
    key: "dtype"
    value {
      type: DT_FLOAT
    }
  }
  attr {
    key: "value"
    value {
      tensor {
        dtype: DT_FLOAT
        tensor_shape {
        }
        float_val: -0.264305
      }
    }
  }
}
node {
  name: "FeatureExtractor/MobilenetV2/expanded_conv_7/expand/weights_quant/min/read"
  op: "Identity"
  input: "FeatureExtractor/MobilenetV2/expanded_conv_7/expand/weights_quant/min"
  attr {
    key: "T"
    value {
      type: DT_FLOAT
    }
  }
  attr {
    key: "_class"
    value {
      list {
        s: "loc:@FeatureExtractor/MobilenetV2/expanded_conv_7/expand/weights_quant/min"
      }
    }
  }
}
node {
  name: "FeatureExtractor/MobilenetV2/expanded_conv_6/project/act_quant/max"
  op: "Const"
  attr {
    key: "dtype"
    value {
      type: DT_FLOAT
    }
  }
  attr {
    key: "value"
    value {
      tensor {
        dtype: DT_FLOAT
        tensor_shape {
        }
        float_val: 17.8764267
      }
    }
  }
}
node {
  name: "FeatureExtractor/MobilenetV2/expanded_conv_6/project/act_quant/max/read"
  op: "Identity"
  input: "FeatureExtractor/MobilenetV2/expanded_conv_6/project/act_quant/max"
  attr {
    key: "T"
    value {
      type: DT_FLOAT
    }
  }
  attr {
    key: "_class"
    value {
      list {
        s: "loc:@FeatureExtractor/MobilenetV2/expanded_conv_6/project/act_quant/max"
      }
    }
  }
}
node {
  name: "FeatureExtractor/MobilenetV2/expanded_conv_6/project/act_quant/min"
  op: "Const"
  attr {
    key: "dtype"
    value {
      type: DT_FLOAT
    }
  }
  attr {
    key: "value"
    value {
      tensor {
        dtype: DT_FLOAT
        tensor_shape {
        }
        float_val: -20.7560577
      }
    }
  }
}
node {
  name: "FeatureExtractor/MobilenetV2/expanded_conv_6/project/act_quant/min/read"
  op: "Identity"
  input: "FeatureExtractor/MobilenetV2/expanded_conv_6/project/act_quant/min"
  attr {
    key: "T"
    value {
      type: DT_FLOAT
    }
  }
  attr {
    key: "_class"
    value {
      list {
        s: "loc:@FeatureExtractor/MobilenetV2/expanded_conv_6/project/act_quant/min"
      }
    }
  }
}
node {
  name: "FeatureExtractor/MobilenetV2/expanded_conv_6/project/weights_quant/max"
  op: "Const"
  attr {
    key: "dtype"
    value {
      type: DT_FLOAT
    }
  }
  attr {
    key: "value"
    value {
      tensor {
        dtype: DT_FLOAT
        tensor_shape {
        }
        float_val: 0.878641427
      }
    }
  }
}
node {
  name: "FeatureExtractor/MobilenetV2/expanded_conv_6/project/weights_quant/max/read"
  op: "Identity"
  input: "FeatureExtractor/MobilenetV2/expanded_conv_6/project/weights_quant/max"
  attr {
    key: "T"
    value {
      type: DT_FLOAT
    }
  }
  attr {
    key: "_class"
    value {
      list {
        s: "loc:@FeatureExtractor/MobilenetV2/expanded_conv_6/project/weights_quant/max"
      }
    }
  }
}
node {
  name: "FeatureExtractor/MobilenetV2/expanded_conv_6/project/weights_quant/min"
  op: "Const"
  attr {
    key: "dtype"
    value {
      type: DT_FLOAT
    }
  }
  attr {
    key: "value"
    value {
      tensor {
        dtype: DT_FLOAT
        tensor_shape {
        }
        float_val: -0.879152477
      }
    }
  }
}
node {
  name: "FeatureExtractor/MobilenetV2/expanded_conv_6/project/weights_quant/min/read"
  op: "Identity"
  input: "FeatureExtractor/MobilenetV2/expanded_conv_6/project/weights_quant/min"
  attr {
    key: "T"
    value {
      type: DT_FLOAT
    }
  }
  attr {
    key: "_class"
    value {
      list {
        s: "loc:@FeatureExtractor/MobilenetV2/expanded_conv_6/project/weights_quant/min"
      }
    }
  }
}
node {
  name: "FeatureExtractor/MobilenetV2/expanded_conv_6/depthwise/act_quant/max"
  op: "Const"
  attr {
    key: "dtype"
    value {
      type: DT_FLOAT
    }
  }
  attr {
    key: "value"
    value {
      tensor {
        dtype: DT_FLOAT
        tensor_shape {
        }
        float_val: 5.99976158
      }
    }
  }
}
node {
  name: "FeatureExtractor/MobilenetV2/expanded_conv_6/depthwise/act_quant/max/read"
  op: "Identity"
  input: "FeatureExtractor/MobilenetV2/expanded_conv_6/depthwise/act_quant/max"
  attr {
    key: "T"
    value {
      type: DT_FLOAT
    }
  }
  attr {
    key: "_class"
    value {
      list {
        s: "loc:@FeatureExtractor/MobilenetV2/expanded_conv_6/depthwise/act_quant/max"
      }
    }
  }
}
node {
  name: "FeatureExtractor/MobilenetV2/expanded_conv_6/depthwise/act_quant/min"
  op: "Const"
  attr {
    key: "dtype"
    value {
      type: DT_FLOAT
    }
  }
  attr {
    key: "value"
    value {
      tensor {
        dtype: DT_FLOAT
        tensor_shape {
        }
        float_val: 0
      }
    }
  }
}
node {
  name: "FeatureExtractor/MobilenetV2/expanded_conv_6/depthwise/act_quant/min/read"
  op: "Identity"
  input: "FeatureExtractor/MobilenetV2/expanded_conv_6/depthwise/act_quant/min"
  attr {
    key: "T"
    value {
      type: DT_FLOAT
    }
  }
  attr {
    key: "_class"
    value {
      list {
        s: "loc:@FeatureExtractor/MobilenetV2/expanded_conv_6/depthwise/act_quant/min"
      }
    }
  }
}
node {
  name: "FeatureExtractor/MobilenetV2/expanded_conv_6/depthwise/weights_quant/max"
  op: "Const"
  attr {
    key: "dtype"
    value {
      type: DT_FLOAT
    }
  }
  attr {
    key: "value"
    value {
      tensor {
        dtype: DT_FLOAT
        tensor_shape {
        }
        float_val: 5.60589409
      }
    }
  }
}
node {
  name: "FeatureExtractor/MobilenetV2/expanded_conv_6/depthwise/weights_quant/max/read"
  op: "Identity"
  input: "FeatureExtractor/MobilenetV2/expanded_conv_6/depthwise/weights_quant/max"
  attr {
    key: "T"
    value {
      type: DT_FLOAT
    }
  }
  attr {
    key: "_class"
    value {
      list {
        s: "loc:@FeatureExtractor/MobilenetV2/expanded_conv_6/depthwise/weights_quant/max"
      }
    }
  }
}
node {
  name: "FeatureExtractor/MobilenetV2/expanded_conv_6/depthwise/weights_quant/min"
  op: "Const"
  attr {
    key: "dtype"
    value {
      type: DT_FLOAT
    }
  }
  attr {
    key: "value"
    value {
      tensor {
        dtype: DT_FLOAT
        tensor_shape {
        }
        float_val: -1.67677987
      }
    }
  }
}
node {
  name: "FeatureExtractor/MobilenetV2/expanded_conv_6/depthwise/weights_quant/min/read"
  op: "Identity"
  input: "FeatureExtractor/MobilenetV2/expanded_conv_6/depthwise/weights_quant/min"
  attr {
    key: "T"
    value {
      type: DT_FLOAT
    }
  }
  attr {
    key: "_class"
    value {
      list {
        s: "loc:@FeatureExtractor/MobilenetV2/expanded_conv_6/depthwise/weights_quant/min"
      }
    }
  }
}
node {
  name: "FeatureExtractor/MobilenetV2/expanded_conv_6/expand/act_quant/max"
  op: "Const"
  attr {
    key: "dtype"
    value {
      type: DT_FLOAT
    }
  }
  attr {
    key: "value"
    value {
      tensor {
        dtype: DT_FLOAT
        tensor_shape {
        }
        float_val: 5.99976158
      }
    }
  }
}
node {
  name: "FeatureExtractor/MobilenetV2/expanded_conv_6/expand/act_quant/max/read"
  op: "Identity"
  input: "FeatureExtractor/MobilenetV2/expanded_conv_6/expand/act_quant/max"
  attr {
    key: "T"
    value {
      type: DT_FLOAT
    }
  }
  attr {
    key: "_class"
    value {
      list {
        s: "loc:@FeatureExtractor/MobilenetV2/expanded_conv_6/expand/act_quant/max"
      }
    }
  }
}
node {
  name: "FeatureExtractor/MobilenetV2/expanded_conv_6/expand/act_quant/min"
  op: "Const"
  attr {
    key: "dtype"
    value {
      type: DT_FLOAT
    }
  }
  attr {
    key: "value"
    value {
      tensor {
        dtype: DT_FLOAT
        tensor_shape {
        }
        float_val: 0
      }
    }
  }
}
node {
  name: "FeatureExtractor/MobilenetV2/expanded_conv_6/expand/act_quant/min/read"
  op: "Identity"
  input: "FeatureExtractor/MobilenetV2/expanded_conv_6/expand/act_quant/min"
  attr {
    key: "T"
    value {
      type: DT_FLOAT
    }
  }
  attr {
    key: "_class"
    value {
      list {
        s: "loc:@FeatureExtractor/MobilenetV2/expanded_conv_6/expand/act_quant/min"
      }
    }
  }
}
node {
  name: "FeatureExtractor/MobilenetV2/expanded_conv_6/expand/weights_quant/max"
  op: "Const"
  attr {
    key: "dtype"
    value {
      type: DT_FLOAT
    }
  }
  attr {
    key: "value"
    value {
      tensor {
        dtype: DT_FLOAT
        tensor_shape {
        }
        float_val: 0.152329355
      }
    }
  }
}
node {
  name: "FeatureExtractor/MobilenetV2/expanded_conv_6/expand/weights_quant/max/read"
  op: "Identity"
  input: "FeatureExtractor/MobilenetV2/expanded_conv_6/expand/weights_quant/max"
  attr {
    key: "T"
    value {
      type: DT_FLOAT
    }
  }
  attr {
    key: "_class"
    value {
      list {
        s: "loc:@FeatureExtractor/MobilenetV2/expanded_conv_6/expand/weights_quant/max"
      }
    }
  }
}
node {
  name: "FeatureExtractor/MobilenetV2/expanded_conv_6/expand/weights_quant/min"
  op: "Const"
  attr {
    key: "dtype"
    value {
      type: DT_FLOAT
    }
  }
  attr {
    key: "value"
    value {
      tensor {
        dtype: DT_FLOAT
        tensor_shape {
        }
        float_val: -0.14724429
      }
    }
  }
}
node {
  name: "FeatureExtractor/MobilenetV2/expanded_conv_6/expand/weights_quant/min/read"
  op: "Identity"
  input: "FeatureExtractor/MobilenetV2/expanded_conv_6/expand/weights_quant/min"
  attr {
    key: "T"
    value {
      type: DT_FLOAT
    }
  }
  attr {
    key: "_class"
    value {
      list {
        s: "loc:@FeatureExtractor/MobilenetV2/expanded_conv_6/expand/weights_quant/min"
      }
    }
  }
}
node {
  name: "FeatureExtractor/MobilenetV2/expanded_conv_5/depthwise/act_quant/max"
  op: "Const"
  attr {
    key: "dtype"
    value {
      type: DT_FLOAT
    }
  }
  attr {
    key: "value"
    value {
      tensor {
        dtype: DT_FLOAT
        tensor_shape {
        }
        float_val: 5.99976158
      }
    }
  }
}
node {
  name: "FeatureExtractor/MobilenetV2/expanded_conv_5/depthwise/act_quant/max/read"
  op: "Identity"
  input: "FeatureExtractor/MobilenetV2/expanded_conv_5/depthwise/act_quant/max"
  attr {
    key: "T"
    value {
      type: DT_FLOAT
    }
  }
  attr {
    key: "_class"
    value {
      list {
        s: "loc:@FeatureExtractor/MobilenetV2/expanded_conv_5/depthwise/act_quant/max"
      }
    }
  }
}
node {
  name: "FeatureExtractor/MobilenetV2/expanded_conv_5/depthwise/act_quant/min"
  op: "Const"
  attr {
    key: "dtype"
    value {
      type: DT_FLOAT
    }
  }
  attr {
    key: "value"
    value {
      tensor {
        dtype: DT_FLOAT
        tensor_shape {
        }
        float_val: 0
      }
    }
  }
}
node {
  name: "FeatureExtractor/MobilenetV2/expanded_conv_5/depthwise/act_quant/min/read"
  op: "Identity"
  input: "FeatureExtractor/MobilenetV2/expanded_conv_5/depthwise/act_quant/min"
  attr {
    key: "T"
    value {
      type: DT_FLOAT
    }
  }
  attr {
    key: "_class"
    value {
      list {
        s: "loc:@FeatureExtractor/MobilenetV2/expanded_conv_5/depthwise/act_quant/min"
      }
    }
  }
}
node {
  name: "FeatureExtractor/MobilenetV2/expanded_conv_5/depthwise/weights_quant/max"
  op: "Const"
  attr {
    key: "dtype"
    value {
      type: DT_FLOAT
    }
  }
  attr {
    key: "value"
    value {
      tensor {
        dtype: DT_FLOAT
        tensor_shape {
        }
        float_val: 2.81833673
      }
    }
  }
}
node {
  name: "FeatureExtractor/MobilenetV2/expanded_conv_5/depthwise/weights_quant/max/read"
  op: "Identity"
  input: "FeatureExtractor/MobilenetV2/expanded_conv_5/depthwise/weights_quant/max"
  attr {
    key: "T"
    value {
      type: DT_FLOAT
    }
  }
  attr {
    key: "_class"
    value {
      list {
        s: "loc:@FeatureExtractor/MobilenetV2/expanded_conv_5/depthwise/weights_quant/max"
      }
    }
  }
}
node {
  name: "FeatureExtractor/MobilenetV2/expanded_conv_5/depthwise/weights_quant/min"
  op: "Const"
  attr {
    key: "dtype"
    value {
      type: DT_FLOAT
    }
  }
  attr {
    key: "value"
    value {
      tensor {
        dtype: DT_FLOAT
        tensor_shape {
        }
        float_val: -3.37856364
      }
    }
  }
}
node {
  name: "FeatureExtractor/MobilenetV2/expanded_conv_5/depthwise/weights_quant/min/read"
  op: "Identity"
  input: "FeatureExtractor/MobilenetV2/expanded_conv_5/depthwise/weights_quant/min"
  attr {
    key: "T"
    value {
      type: DT_FLOAT
    }
  }
  attr {
    key: "_class"
    value {
      list {
        s: "loc:@FeatureExtractor/MobilenetV2/expanded_conv_5/depthwise/weights_quant/min"
      }
    }
  }
}
node {
  name: "FeatureExtractor/MobilenetV2/expanded_conv_5/expand/act_quant/max"
  op: "Const"
  attr {
    key: "dtype"
    value {
      type: DT_FLOAT
    }
  }
  attr {
    key: "value"
    value {
      tensor {
        dtype: DT_FLOAT
        tensor_shape {
        }
        float_val: 5.99976158
      }
    }
  }
}
node {
  name: "FeatureExtractor/MobilenetV2/expanded_conv_5/expand/act_quant/max/read"
  op: "Identity"
  input: "FeatureExtractor/MobilenetV2/expanded_conv_5/expand/act_quant/max"
  attr {
    key: "T"
    value {
      type: DT_FLOAT
    }
  }
  attr {
    key: "_class"
    value {
      list {
        s: "loc:@FeatureExtractor/MobilenetV2/expanded_conv_5/expand/act_quant/max"
      }
    }
  }
}
node {
  name: "FeatureExtractor/MobilenetV2/expanded_conv_5/expand/act_quant/min"
  op: "Const"
  attr {
    key: "dtype"
    value {
      type: DT_FLOAT
    }
  }
  attr {
    key: "value"
    value {
      tensor {
        dtype: DT_FLOAT
        tensor_shape {
        }
        float_val: 0
      }
    }
  }
}
node {
  name: "FeatureExtractor/MobilenetV2/expanded_conv_5/expand/act_quant/min/read"
  op: "Identity"
  input: "FeatureExtractor/MobilenetV2/expanded_conv_5/expand/act_quant/min"
  attr {
    key: "T"
    value {
      type: DT_FLOAT
    }
  }
  attr {
    key: "_class"
    value {
      list {
        s: "loc:@FeatureExtractor/MobilenetV2/expanded_conv_5/expand/act_quant/min"
      }
    }
  }
}
node {
  name: "FeatureExtractor/MobilenetV2/expanded_conv_5/expand/weights_quant/max"
  op: "Const"
  attr {
    key: "dtype"
    value {
      type: DT_FLOAT
    }
  }
  attr {
    key: "value"
    value {
      tensor {
        dtype: DT_FLOAT
        tensor_shape {
        }
        float_val: 0.159996435
      }
    }
  }
}
node {
  name: "FeatureExtractor/MobilenetV2/expanded_conv_5/expand/weights_quant/max/read"
  op: "Identity"
  input: "FeatureExtractor/MobilenetV2/expanded_conv_5/expand/weights_quant/max"
  attr {
    key: "T"
    value {
      type: DT_FLOAT
    }
  }
  attr {
    key: "_class"
    value {
      list {
        s: "loc:@FeatureExtractor/MobilenetV2/expanded_conv_5/expand/weights_quant/max"
      }
    }
  }
}
node {
  name: "FeatureExtractor/MobilenetV2/expanded_conv_5/expand/weights_quant/min"
  op: "Const"
  attr {
    key: "dtype"
    value {
      type: DT_FLOAT
    }
  }
  attr {
    key: "value"
    value {
      tensor {
        dtype: DT_FLOAT
        tensor_shape {
        }
        float_val: -0.120586783
      }
    }
  }
}
node {
  name: "FeatureExtractor/MobilenetV2/expanded_conv_5/expand/weights_quant/min/read"
  op: "Identity"
  input: "FeatureExtractor/MobilenetV2/expanded_conv_5/expand/weights_quant/min"
  attr {
    key: "T"
    value {
      type: DT_FLOAT
    }
  }
  attr {
    key: "_class"
    value {
      list {
        s: "loc:@FeatureExtractor/MobilenetV2/expanded_conv_5/expand/weights_quant/min"
      }
    }
  }
}
node {
  name: "FeatureExtractor/MobilenetV2/expanded_conv_4/depthwise/act_quant/max"
  op: "Const"
  attr {
    key: "dtype"
    value {
      type: DT_FLOAT
    }
  }
  attr {
    key: "value"
    value {
      tensor {
        dtype: DT_FLOAT
        tensor_shape {
        }
        float_val: 5.99976158
      }
    }
  }
}
node {
  name: "FeatureExtractor/MobilenetV2/expanded_conv_4/depthwise/act_quant/max/read"
  op: "Identity"
  input: "FeatureExtractor/MobilenetV2/expanded_conv_4/depthwise/act_quant/max"
  attr {
    key: "T"
    value {
      type: DT_FLOAT
    }
  }
  attr {
    key: "_class"
    value {
      list {
        s: "loc:@FeatureExtractor/MobilenetV2/expanded_conv_4/depthwise/act_quant/max"
      }
    }
  }
}
node {
  name: "FeatureExtractor/MobilenetV2/expanded_conv_4/depthwise/act_quant/min"
  op: "Const"
  attr {
    key: "dtype"
    value {
      type: DT_FLOAT
    }
  }
  attr {
    key: "value"
    value {
      tensor {
        dtype: DT_FLOAT
        tensor_shape {
        }
        float_val: 0
      }
    }
  }
}
node {
  name: "FeatureExtractor/MobilenetV2/expanded_conv_4/depthwise/act_quant/min/read"
  op: "Identity"
  input: "FeatureExtractor/MobilenetV2/expanded_conv_4/depthwise/act_quant/min"
  attr {
    key: "T"
    value {
      type: DT_FLOAT
    }
  }
  attr {
    key: "_class"
    value {
      list {
        s: "loc:@FeatureExtractor/MobilenetV2/expanded_conv_4/depthwise/act_quant/min"
      }
    }
  }
}
node {
  name: "FeatureExtractor/MobilenetV2/expanded_conv_4/depthwise/weights_quant/max"
  op: "Const"
  attr {
    key: "dtype"
    value {
      type: DT_FLOAT
    }
  }
  attr {
    key: "value"
    value {
      tensor {
        dtype: DT_FLOAT
        tensor_shape {
        }
        float_val: 3.66413116
      }
    }
  }
}
node {
  name: "FeatureExtractor/MobilenetV2/expanded_conv_4/depthwise/weights_quant/max/read"
  op: "Identity"
  input: "FeatureExtractor/MobilenetV2/expanded_conv_4/depthwise/weights_quant/max"
  attr {
    key: "T"
    value {
      type: DT_FLOAT
    }
  }
  attr {
    key: "_class"
    value {
      list {
        s: "loc:@FeatureExtractor/MobilenetV2/expanded_conv_4/depthwise/weights_quant/max"
      }
    }
  }
}
node {
  name: "FeatureExtractor/MobilenetV2/expanded_conv_4/depthwise/weights_quant/min"
  op: "Const"
  attr {
    key: "dtype"
    value {
      type: DT_FLOAT
    }
  }
  attr {
    key: "value"
    value {
      tensor {
        dtype: DT_FLOAT
        tensor_shape {
        }
        float_val: -3.43071675
      }
    }
  }
}
node {
  name: "FeatureExtractor/MobilenetV2/expanded_conv_4/depthwise/weights_quant/min/read"
  op: "Identity"
  input: "FeatureExtractor/MobilenetV2/expanded_conv_4/depthwise/weights_quant/min"
  attr {
    key: "T"
    value {
      type: DT_FLOAT
    }
  }
  attr {
    key: "_class"
    value {
      list {
        s: "loc:@FeatureExtractor/MobilenetV2/expanded_conv_4/depthwise/weights_quant/min"
      }
    }
  }
}
node {
  name: "FeatureExtractor/MobilenetV2/expanded_conv_4/expand/act_quant/max"
  op: "Const"
  attr {
    key: "dtype"
    value {
      type: DT_FLOAT
    }
  }
  attr {
    key: "value"
    value {
      tensor {
        dtype: DT_FLOAT
        tensor_shape {
        }
        float_val: 5.99976158
      }
    }
  }
}
node {
  name: "FeatureExtractor/MobilenetV2/expanded_conv_4/expand/act_quant/max/read"
  op: "Identity"
  input: "FeatureExtractor/MobilenetV2/expanded_conv_4/expand/act_quant/max"
  attr {
    key: "T"
    value {
      type: DT_FLOAT
    }
  }
  attr {
    key: "_class"
    value {
      list {
        s: "loc:@FeatureExtractor/MobilenetV2/expanded_conv_4/expand/act_quant/max"
      }
    }
  }
}
node {
  name: "FeatureExtractor/MobilenetV2/expanded_conv_4/expand/act_quant/min"
  op: "Const"
  attr {
    key: "dtype"
    value {
      type: DT_FLOAT
    }
  }
  attr {
    key: "value"
    value {
      tensor {
        dtype: DT_FLOAT
        tensor_shape {
        }
        float_val: 0
      }
    }
  }
}
node {
  name: "FeatureExtractor/MobilenetV2/expanded_conv_4/expand/act_quant/min/read"
  op: "Identity"
  input: "FeatureExtractor/MobilenetV2/expanded_conv_4/expand/act_quant/min"
  attr {
    key: "T"
    value {
      type: DT_FLOAT
    }
  }
  attr {
    key: "_class"
    value {
      list {
        s: "loc:@FeatureExtractor/MobilenetV2/expanded_conv_4/expand/act_quant/min"
      }
    }
  }
}
node {
  name: "FeatureExtractor/MobilenetV2/expanded_conv_4/expand/weights_quant/max"
  op: "Const"
  attr {
    key: "dtype"
    value {
      type: DT_FLOAT
    }
  }
  attr {
    key: "value"
    value {
      tensor {
        dtype: DT_FLOAT
        tensor_shape {
        }
        float_val: 0.179203898
      }
    }
  }
}
node {
  name: "FeatureExtractor/MobilenetV2/expanded_conv_4/expand/weights_quant/max/read"
  op: "Identity"
  input: "FeatureExtractor/MobilenetV2/expanded_conv_4/expand/weights_quant/max"
  attr {
    key: "T"
    value {
      type: DT_FLOAT
    }
  }
  attr {
    key: "_class"
    value {
      list {
        s: "loc:@FeatureExtractor/MobilenetV2/expanded_conv_4/expand/weights_quant/max"
      }
    }
  }
}
node {
  name: "FeatureExtractor/MobilenetV2/expanded_conv_4/expand/weights_quant/min"
  op: "Const"
  attr {
    key: "dtype"
    value {
      type: DT_FLOAT
    }
  }
  attr {
    key: "value"
    value {
      tensor {
        dtype: DT_FLOAT
        tensor_shape {
        }
        float_val: -0.172915399
      }
    }
  }
}
node {
  name: "FeatureExtractor/MobilenetV2/expanded_conv_4/expand/weights_quant/min/read"
  op: "Identity"
  input: "FeatureExtractor/MobilenetV2/expanded_conv_4/expand/weights_quant/min"
  attr {
    key: "T"
    value {
      type: DT_FLOAT
    }
  }
  attr {
    key: "_class"
    value {
      list {
        s: "loc:@FeatureExtractor/MobilenetV2/expanded_conv_4/expand/weights_quant/min"
      }
    }
  }
}
node {
  name: "FeatureExtractor/MobilenetV2/expanded_conv_3/project/act_quant/max"
  op: "Const"
  attr {
    key: "dtype"
    value {
      type: DT_FLOAT
    }
  }
  attr {
    key: "value"
    value {
      tensor {
        dtype: DT_FLOAT
        tensor_shape {
        }
        float_val: 24.4249935
      }
    }
  }
}
node {
  name: "FeatureExtractor/MobilenetV2/expanded_conv_3/project/act_quant/max/read"
  op: "Identity"
  input: "FeatureExtractor/MobilenetV2/expanded_conv_3/project/act_quant/max"
  attr {
    key: "T"
    value {
      type: DT_FLOAT
    }
  }
  attr {
    key: "_class"
    value {
      list {
        s: "loc:@FeatureExtractor/MobilenetV2/expanded_conv_3/project/act_quant/max"
      }
    }
  }
}
node {
  name: "FeatureExtractor/MobilenetV2/expanded_conv_3/project/act_quant/min"
  op: "Const"
  attr {
    key: "dtype"
    value {
      type: DT_FLOAT
    }
  }
  attr {
    key: "value"
    value {
      tensor {
        dtype: DT_FLOAT
        tensor_shape {
        }
        float_val: -23.5580196
      }
    }
  }
}
node {
  name: "FeatureExtractor/MobilenetV2/expanded_conv_3/project/act_quant/min/read"
  op: "Identity"
  input: "FeatureExtractor/MobilenetV2/expanded_conv_3/project/act_quant/min"
  attr {
    key: "T"
    value {
      type: DT_FLOAT
    }
  }
  attr {
    key: "_class"
    value {
      list {
        s: "loc:@FeatureExtractor/MobilenetV2/expanded_conv_3/project/act_quant/min"
      }
    }
  }
}
node {
  name: "FeatureExtractor/MobilenetV2/expanded_conv_3/project/weights_quant/max"
  op: "Const"
  attr {
    key: "dtype"
    value {
      type: DT_FLOAT
    }
  }
  attr {
    key: "value"
    value {
      tensor {
        dtype: DT_FLOAT
        tensor_shape {
        }
        float_val: 1.0148294
      }
    }
  }
}
node {
  name: "FeatureExtractor/MobilenetV2/expanded_conv_3/project/weights_quant/max/read"
  op: "Identity"
…
  name: "Postprocessor/BatchMultiClassNonMaxSuppression/map/while/MultiClassNonMaxSuppression/Gather_5/GatherV2_6"
  op: "GatherV2"
  input: "Postprocessor/BatchMultiClassNonMaxSuppression/map/while/MultiClassNonMaxSuppression/Gather_4/GatherV2_6"
  input: "Postprocessor/BatchMultiClassNonMaxSuppression/map/while/MultiClassNonMaxSuppression/range_5"
  input: "Postprocessor/BatchMultiClassNonMaxSuppression/map/while/MultiClassNonMaxSuppression/Gather_5/GatherV2_6/axis"
  attr {
    key: "Taxis"
    value {
      type: DT_INT32
    }
  }
  attr {
    key: "Tindices"
    value {
      type: DT_INT32
    }
  }
  attr {
    key: "Tparams"
    value {
      type: DT_FLOAT
    }
  }
  attr {
    key: "batch_dims"
    value {
      i: 0
    }
  }
}
node {
  name: "Postprocessor/BatchMultiClassNonMaxSuppression/map/while/PadOrClipBoxList/Shape"
  op: "Shape"
  input: "Postprocessor/BatchMultiClassNonMaxSuppression/map/while/MultiClassNonMaxSuppression/Gather_5/GatherV2_6"
  attr {
    key: "T"
    value {
      type: DT_FLOAT
    }
  }
  attr {
    key: "out_type"
    value {
      type: DT_INT32
    }
  }
}
node {
  name: "Postprocessor/BatchMultiClassNonMaxSuppression/map/while/PadOrClipBoxList/strided_slice_1"
  op: "StridedSlice"
  input: "Postprocessor/BatchMultiClassNonMaxSuppression/map/while/PadOrClipBoxList/Shape"
  input: "Postprocessor/BatchMultiClassNonMaxSuppression/map/while/PadOrClipBoxList/strided_slice_1/stack"
  input: "Postprocessor/BatchMultiClassNonMaxSuppression/map/while/PadOrClipBoxList/strided_slice_1/stack_1"
  input: "Postprocessor/BatchMultiClassNonMaxSuppression/map/while/PadOrClipBoxList/strided_slice_1/stack_2"
  attr {
    key: "Index"
    value {
      type: DT_INT32
    }
  }
  attr {
    key: "T"
    value {
      type: DT_INT32
    }
  }
  attr {
    key: "begin_mask"
    value {
      i: 0
    }
  }
  attr {
    key: "ellipsis_mask"
    value {
      i: 0
    }
  }
  attr {
    key: "end_mask"
    value {
      i: 0
    }
  }
  attr {
    key: "new_axis_mask"
    value {
      i: 0
    }
  }
  attr {
    key: "shrink_axis_mask"
    value {
      i: 1
    }
  }
}
node {
  name: "Postprocessor/BatchMultiClassNonMaxSuppression/map/while/PadOrClipBoxList/sub_1"
  op: "Sub"
  input: "Postprocessor/BatchMultiClassNonMaxSuppression/map/while/PadOrClipBoxList/strided_slice_1"
  input: "Postprocessor/BatchMultiClassNonMaxSuppression/map/while/PadOrClipBoxList/sub_1/y"
  attr {
    key: "T"
    value {
      type: DT_INT32
    }
  }
}
node {
  name: "Postprocessor/BatchMultiClassNonMaxSuppression/map/while/PadOrClipBoxList/Greater_1"
  op: "Greater"
  input: "Postprocessor/BatchMultiClassNonMaxSuppression/map/while/PadOrClipBoxList/sub_1"
  input: "Postprocessor/BatchMultiClassNonMaxSuppression/map/while/PadOrClipBoxList/Greater_1/y"
  attr {
    key: "T"
    value {
      type: DT_INT32
    }
  }
}
node {
  name: "Postprocessor/BatchMultiClassNonMaxSuppression/map/while/PadOrClipBoxList/Select_1"
  op: "Select"
  input: "Postprocessor/BatchMultiClassNonMaxSuppression/map/while/PadOrClipBoxList/Greater_1"
  input: "Postprocessor/BatchMultiClassNonMaxSuppression/map/while/PadOrClipBoxList/Select_1/t"
  input: "Postprocessor/BatchMultiClassNonMaxSuppression/map/while/PadOrClipBoxList/Select_1/e"
  attr {
    key: "T"
    value {
      type: DT_INT32
    }
  }
}
node {
  name: "Postprocessor/BatchMultiClassNonMaxSuppression/map/while/PadOrClipBoxList/strided_slice"
  op: "StridedSlice"
  input: "Postprocessor/BatchMultiClassNonMaxSuppression/map/while/PadOrClipBoxList/Shape"
  input: "Postprocessor/BatchMultiClassNonMaxSuppression/map/while/PadOrClipBoxList/strided_slice/stack"
  input: "Postprocessor/BatchMultiClassNonMaxSuppression/map/while/PadOrClipBoxList/strided_slice/stack_1"
  input: "Postprocessor/BatchMultiClassNonMaxSuppression/map/while/PadOrClipBoxList/strided_slice/stack_2"
  attr {
    key: "Index"
    value {
      type: DT_INT32
    }
  }
  attr {
    key: "T"
    value {
      type: DT_INT32
    }
  }
  attr {
    key: "begin_mask"
    value {
      i: 0
    }
  }
  attr {
    key: "ellipsis_mask"
    value {
      i: 0
    }
  }
  attr {
    key: "end_mask"
    value {
      i: 0
    }
  }
  attr {
    key: "new_axis_mask"
    value {
      i: 0
    }
  }
  attr {
    key: "shrink_axis_mask"
    value {
      i: 1
    }
  }
}
node {
  name: "Postprocessor/BatchMultiClassNonMaxSuppression/map/while/PadOrClipBoxList/sub"
  op: "Sub"
  input: "Postprocessor/BatchMultiClassNonMaxSuppression/map/while/PadOrClipBoxList/strided_slice"
  input: "Postprocessor/BatchMultiClassNonMaxSuppression/map/while/PadOrClipBoxList/sub/y"
  attr {
    key: "T"
    value {
      type: DT_INT32
    }
  }
}
node {
  name: "Postprocessor/BatchMultiClassNonMaxSuppression/map/while/PadOrClipBoxList/Greater"
  op: "Greater"
  input: "Postprocessor/BatchMultiClassNonMaxSuppression/map/while/PadOrClipBoxList/sub"
  input: "Postprocessor/BatchMultiClassNonMaxSuppression/map/while/PadOrClipBoxList/Greater/y"
  attr {
    key: "T"
    value {
      type: DT_INT32
    }
  }
}
node {
  name: "Postprocessor/BatchMultiClassNonMaxSuppression/map/while/PadOrClipBoxList/Select"
  op: "Select"
  input: "Postprocessor/BatchMultiClassNonMaxSuppression/map/while/PadOrClipBoxList/Greater"
  input: "Postprocessor/BatchMultiClassNonMaxSuppression/map/while/PadOrClipBoxList/Select/t"
  input: "Postprocessor/BatchMultiClassNonMaxSuppression/map/while/PadOrClipBoxList/Select/e"
  attr {
    key: "T"
    value {
      type: DT_INT32
    }
  }
}
node {
  name: "Postprocessor/BatchMultiClassNonMaxSuppression/map/while/PadOrClipBoxList/Slice/size"
  op: "Pack"
  input: "Postprocessor/BatchMultiClassNonMaxSuppression/map/while/PadOrClipBoxList/Select"
  input: "Postprocessor/BatchMultiClassNonMaxSuppression/map/while/PadOrClipBoxList/Select_1"
  attr {
    key: "N"
    value {
      i: 2
    }
  }
  attr {
    key: "T"
    value {
      type: DT_INT32
    }
  }
  attr {
    key: "axis"
    value {
      i: 0
    }
  }
}
node {
  name: "Postprocessor/BatchMultiClassNonMaxSuppression/map/while/PadOrClipBoxList/Slice"
  op: "Slice"
  input: "Postprocessor/BatchMultiClassNonMaxSuppression/map/while/MultiClassNonMaxSuppression/Gather_5/GatherV2_6"
  input: "Postprocessor/BatchMultiClassNonMaxSuppression/map/while/PadOrClipBoxList/zeros"
  input: "Postprocessor/BatchMultiClassNonMaxSuppression/map/while/PadOrClipBoxList/Slice/size"
  attr {
    key: "Index"
    value {
      type: DT_INT32
    }
  }
  attr {
    key: "T"
    value {
      type: DT_FLOAT
    }
  }
}
node {
  name: "Postprocessor/BatchMultiClassNonMaxSuppression/map/while/PadOrClipBoxList/Shape_1"
  op: "Shape"
  input: "Postprocessor/BatchMultiClassNonMaxSuppression/map/while/PadOrClipBoxList/Slice"
  attr {
    key: "T"
    value {
      type: DT_FLOAT
    }
  }
  attr {
    key: "out_type"
    value {
      type: DT_INT32
    }
  }
}
node {
  name: "Postprocessor/BatchMultiClassNonMaxSuppression/map/while/PadOrClipBoxList/strided_slice_3"
  op: "StridedSlice"
  input: "Postprocessor/BatchMultiClassNonMaxSuppression/map/while/PadOrClipBoxList/Shape_1"
  input: "Postprocessor/BatchMultiClassNonMaxSuppression/map/while/PadOrClipBoxList/strided_slice_3/stack"
  input: "Postprocessor/BatchMultiClassNonMaxSuppression/map/while/PadOrClipBoxList/strided_slice_3/stack_1"
  input: "Postprocessor/BatchMultiClassNonMaxSuppression/map/while/PadOrClipBoxList/strided_slice_3/stack_2"
  attr {
    key: "Index"
    value {
      type: DT_INT32
    }
  }
  attr {
    key: "T"
    value {
      type: DT_INT32
    }
  }
  attr {
    key: "begin_mask"
    value {
      i: 0
    }
  }
  attr {
    key: "ellipsis_mask"
    value {
      i: 0
    }
  }
  attr {
    key: "end_mask"
    value {
      i: 0
    }
  }
  attr {
    key: "new_axis_mask"
    value {
      i: 0
    }
  }
  attr {
    key: "shrink_axis_mask"
    value {
      i: 1
    }
  }
}
node {
  name: "Postprocessor/BatchMultiClassNonMaxSuppression/map/while/PadOrClipBoxList/sub_3"
  op: "Sub"
  input: "Postprocessor/BatchMultiClassNonMaxSuppression/map/while/PadOrClipBoxList/sub_3/x"
  input: "Postprocessor/BatchMultiClassNonMaxSuppression/map/while/PadOrClipBoxList/strided_slice_3"
  attr {
    key: "T"
    value {
      type: DT_INT32
    }
  }
}
node {
  name: "Postprocessor/BatchMultiClassNonMaxSuppression/map/while/PadOrClipBoxList/strided_slice_2"
  op: "StridedSlice"
  input: "Postprocessor/BatchMultiClassNonMaxSuppression/map/while/PadOrClipBoxList/Shape_1"
  input: "Postprocessor/BatchMultiClassNonMaxSuppression/map/while/PadOrClipBoxList/strided_slice_2/stack"
  input: "Postprocessor/BatchMultiClassNonMaxSuppression/map/while/PadOrClipBoxList/strided_slice_2/stack_1"
  input: "Postprocessor/BatchMultiClassNonMaxSuppression/map/while/PadOrClipBoxList/strided_slice_2/stack_2"
  attr {
    key: "Index"
    value {
      type: DT_INT32
    }
  }
  attr {
    key: "T"
    value {
      type: DT_INT32
    }
  }
  attr {
    key: "begin_mask"
    value {
      i: 0
    }
  }
  attr {
    key: "ellipsis_mask"
    value {
      i: 0
    }
  }
  attr {
    key: "end_mask"
    value {
      i: 0
    }
  }
  attr {
    key: "new_axis_mask"
    value {
      i: 0
    }
  }
  attr {
    key: "shrink_axis_mask"
    value {
      i: 1
    }
  }
}
node {
  name: "Postprocessor/BatchMultiClassNonMaxSuppression/map/while/PadOrClipBoxList/sub_2"
  op: "Sub"
  input: "Postprocessor/BatchMultiClassNonMaxSuppression/map/while/PadOrClipBoxList/sub_2/x"
  input: "Postprocessor/BatchMultiClassNonMaxSuppression/map/while/PadOrClipBoxList/strided_slice_2"
  attr {
    key: "T"
    value {
      type: DT_INT32
    }
  }
}
node {
  name: "Postprocessor/BatchMultiClassNonMaxSuppression/map/while/PadOrClipBoxList/stack/values_1"
  op: "Pack"
  input: "Postprocessor/BatchMultiClassNonMaxSuppression/map/while/PadOrClipBoxList/sub_2"
  input: "Postprocessor/BatchMultiClassNonMaxSuppression/map/while/PadOrClipBoxList/sub_3"
  attr {
    key: "N"
    value {
      i: 2
    }
  }
  attr {
    key: "T"
    value {
      type: DT_INT32
    }
  }
  attr {
    key: "axis"
    value {
      i: 0
    }
  }
}
node {
  name: "Postprocessor/BatchMultiClassNonMaxSuppression/map/while/PadOrClipBoxList/stack"
  op: "Pack"
  input: "Postprocessor/BatchMultiClassNonMaxSuppression/map/while/PadOrClipBoxList/zeros_1"
  input: "Postprocessor/BatchMultiClassNonMaxSuppression/map/while/PadOrClipBoxList/stack/values_1"
  attr {
    key: "N"
    value {
      i: 2
    }
  }
  attr {
    key: "T"
    value {
      type: DT_INT32
    }
  }
  attr {
    key: "axis"
    value {
      i: 1
    }
  }
}
node {
  name: "Postprocessor/BatchMultiClassNonMaxSuppression/map/while/PadOrClipBoxList/Pad"
  op: "Pad"
  input: "Postprocessor/BatchMultiClassNonMaxSuppression/map/while/PadOrClipBoxList/Slice"
  input: "Postprocessor/BatchMultiClassNonMaxSuppression/map/while/PadOrClipBoxList/stack"
  attr {
    key: "T"
    value {
      type: DT_FLOAT
    }
  }
  attr {
    key: "Tpaddings"
    value {
      type: DT_INT32
    }
  }
}
node {
  name: "Postprocessor/BatchMultiClassNonMaxSuppression/map/while/TensorArrayWrite/TensorArrayWriteV3"
  op: "TensorArrayWriteV3"
  input: "Postprocessor/BatchMultiClassNonMaxSuppression/map/while/TensorArrayWrite/TensorArrayWriteV3/Enter"
  input: "Postprocessor/BatchMultiClassNonMaxSuppression/map/while/Identity_1"
  input: "Postprocessor/BatchMultiClassNonMaxSuppression/map/while/PadOrClipBoxList/Pad"
  input: "Postprocessor/BatchMultiClassNonMaxSuppression/map/while/Identity_2"
  attr {
    key: "T"
    value {
      type: DT_FLOAT
    }
  }
  attr {
    key: "_class"
    value {
      list {
        s: "loc:@Postprocessor/BatchMultiClassNonMaxSuppression/map/while/PadOrClipBoxList/Pad"
      }
    }
  }
}
node {
  name: "Postprocessor/BatchMultiClassNonMaxSuppression/map/while/NextIteration_2"
  op: "NextIteration"
  input: "Postprocessor/BatchMultiClassNonMaxSuppression/map/while/TensorArrayWrite/TensorArrayWriteV3"
  attr {
    key: "T"
    value {
      type: DT_FLOAT
    }
  }
}
node {
  name: "Postprocessor/BatchMultiClassNonMaxSuppression/map/while/MultiClassNonMaxSuppression/Gather_5/GatherV2_5"
  op: "GatherV2"
  input: "Postprocessor/BatchMultiClassNonMaxSuppression/map/while/MultiClassNonMaxSuppression/Gather_4/GatherV2_5"
  input: "Postprocessor/BatchMultiClassNonMaxSuppression/map/while/MultiClassNonMaxSuppression/range_5"
  input: "Postprocessor/BatchMultiClassNonMaxSuppression/map/while/MultiClassNonMaxSuppression/Gather_5/GatherV2_5/axis"
  attr {
    key: "Taxis"
    value {
      type: DT_INT32
    }
  }
  attr {
    key: "Tindices"
    value {
      type: DT_INT32
    }
  }
  attr {
    key: "Tparams"
    value {
      type: DT_FLOAT
    }
  }
  attr {
    key: "batch_dims"
    value {
      i: 0
    }
  }
}
node {
  name: "Postprocessor/BatchMultiClassNonMaxSuppression/map/while/PadOrClipBoxList/Shape_10"
  op: "Shape"
  input: "Postprocessor/BatchMultiClassNonMaxSuppression/map/while/MultiClassNonMaxSuppression/Gather_5/GatherV2_5"
  attr {
    key: "T"
    value {
      type: DT_FLOAT
    }
  }
  attr {
    key: "out_type"
    value {
      type: DT_INT32
    }
  }
}
node {
  name: "Postprocessor/BatchMultiClassNonMaxSuppression/map/while/PadOrClipBoxList/strided_slice_18"
  op: "StridedSlice"
  input: "Postprocessor/BatchMultiClassNonMaxSuppression/map/while/PadOrClipBoxList/Shape_10"
  input: "Postprocessor/BatchMultiClassNonMaxSuppression/map/while/PadOrClipBoxList/strided_slice_18/stack"
  input: "Postprocessor/BatchMultiClassNonMaxSuppression/map/while/PadOrClipBoxList/strided_slice_18/stack_1"
  input: "Postprocessor/BatchMultiClassNonMaxSuppression/map/while/PadOrClipBoxList/strided_slice_18/stack_2"
  attr {
    key: "Index"
    value {
      type: DT_INT32
    }
  }
  attr {
    key: "T"
    value {
      type: DT_INT32
    }
  }
  attr {
    key: "begin_mask"
    value {
      i: 0
    }
  }
  attr {
    key: "ellipsis_mask"
    value {
      i: 0
    }
  }
  attr {
    key: "end_mask"
    value {
      i: 0
    }
  }
  attr {
    key: "new_axis_mask"
    value {
      i: 0
    }
  }
  attr {
    key: "shrink_axis_mask"
    value {
      i: 1
    }
  }
}
node {
  name: "Postprocessor/BatchMultiClassNonMaxSuppression/map/while/PadOrClipBoxList/sub_18"
  op: "Sub"
  input: "Postprocessor/BatchMultiClassNonMaxSuppression/map/while/PadOrClipBoxList/strided_slice_18"
  input: "Postprocessor/BatchMultiClassNonMaxSuppression/map/while/PadOrClipBoxList/sub_18/y"
  attr {
    key: "T"
    value {
      type: DT_INT32
    }
  }
}
node {
  name: "Postprocessor/BatchMultiClassNonMaxSuppression/map/while/PadOrClipBoxList/Greater_9"
  op: "Greater"
  input: "Postprocessor/BatchMultiClassNonMaxSuppression/map/while/PadOrClipBoxList/sub_18"
  input: "Postprocessor/BatchMultiClassNonMaxSuppression/map/while/PadOrClipBoxList/Greater_9/y"
  attr {
    key: "T"
    value {
      type: DT_INT32
    }
  }
}
node {
  name: "Postprocessor/BatchMultiClassNonMaxSuppression/map/while/PadOrClipBoxList/Select_9"
  op: "Select"
  input: "Postprocessor/BatchMultiClassNonMaxSuppression/map/while/PadOrClipBoxList/Greater_9"
  input: "Postprocessor/BatchMultiClassNonMaxSuppression/map/while/PadOrClipBoxList/Select_9/t"
  input: "Postprocessor/BatchMultiClassNonMaxSuppression/map/while/PadOrClipBoxList/Select_9/e"
  attr {
    key: "T"
    value {
      type: DT_INT32
    }
  }
}
node {
  name: "Postprocessor/BatchMultiClassNonMaxSuppression/map/while/PadOrClipBoxList/Slice_5/size"
  op: "Pack"
  input: "Postprocessor/BatchMultiClassNonMaxSuppression/map/while/PadOrClipBoxList/Select_9"
  attr {
    key: "N"
    value {
      i: 1
    }
  }
  attr {
    key: "T"
    value {
      type: DT_INT32
    }
  }
  attr {
    key: "axis"
    value {
      i: 0
    }
  }
}
node {
  name: "Postprocessor/BatchMultiClassNonMaxSuppression/map/while/PadOrClipBoxList/Slice_5"
  op: "Slice"
  input: "Postprocessor/BatchMultiClassNonMaxSuppression/map/while/MultiClassNonMaxSuppression/Gather_5/GatherV2_5"
  input: "Postprocessor/BatchMultiClassNonMaxSuppression/map/while/PadOrClipBoxList/zeros_10"
  input: "Postprocessor/BatchMultiClassNonMaxSuppression/map/while/PadOrClipBoxList/Slice_5/size"
  attr {
    key: "Index"
    value {
      type: DT_INT32
    }
  }
  attr {
    key: "T"
    value {
      type: DT_FLOAT
    }
  }
}
node {
  name: "Postprocessor/BatchMultiClassNonMaxSuppression/map/while/PadOrClipBoxList/Shape_11"
  op: "Shape"
  input: "Postprocessor/BatchMultiClassNonMaxSuppression/map/while/PadOrClipBoxList/Slice_5"
  attr {
    key: "T"
    value {
      type: DT_FLOAT
    }
  }
  attr {
    key: "out_type"
    value {
      type: DT_INT32
    }
  }
}
node {
  name: "Postprocessor/BatchMultiClassNonMaxSuppression/map/while/PadOrClipBoxList/strided_slice_19"
  op: "StridedSlice"
  input: "Postprocessor/BatchMultiClassNonMaxSuppression/map/while/PadOrClipBoxList/Shape_11"
  input: "Postprocessor/BatchMultiClassNonMaxSuppression/map/while/PadOrClipBoxList/strided_slice_19/stack"
  input: "Postprocessor/BatchMultiClassNonMaxSuppression/map/while/PadOrClipBoxList/strided_slice_19/stack_1"
  input: "Postprocessor/BatchMultiClassNonMaxSuppression/map/while/PadOrClipBoxList/strided_slice_19/stack_2"
  attr {
    key: "Index"
    value {
      type: DT_INT32
    }
  }
  attr {
    key: "T"
    value {
      type: DT_INT32
    }
  }
  attr {
    key: "begin_mask"
    value {
      i: 0
    }
  }
  attr {
    key: "ellipsis_mask"
    value {
      i: 0
    }
  }
  attr {
    key: "end_mask"
    value {
      i: 0
    }
  }
  attr {
    key: "new_axis_mask"
    value {
      i: 0
    }
  }
  attr {
    key: "shrink_axis_mask"
    value {
      i: 1
    }
  }
}
node {
  name: "Postprocessor/BatchMultiClassNonMaxSuppression/map/while/PadOrClipBoxList/sub_19"
  op: "Sub"
  input: "Postprocessor/BatchMultiClassNonMaxSuppression/map/while/PadOrClipBoxList/sub_19/x"
  input: "Postprocessor/BatchMultiClassNonMaxSuppression/map/while/PadOrClipBoxList/strided_slice_19"
  attr {
    key: "T"
    value {
      type: DT_INT32
    }
  }
}
node {
  name: "Postprocessor/BatchMultiClassNonMaxSuppression/map/while/PadOrClipBoxList/stack_5/values_1"
  op: "Pack"
  input: "Postprocessor/BatchMultiClassNonMaxSuppression/map/while/PadOrClipBoxList/sub_19"
  attr {
    key: "N"
    value {
      i: 1
    }
  }
  attr {
    key: "T"
    value {
      type: DT_INT32
    }
  }
  attr {
    key: "axis"
    value {
      i: 0
    }
  }
}
node {
  name: "Postprocessor/BatchMultiClassNonMaxSuppression/map/while/PadOrClipBoxList/stack_5"
  op: "Pack"
  input: "Postprocessor/BatchMultiClassNonMaxSuppression/map/while/PadOrClipBoxList/zeros_11"
  input: "Postprocessor/BatchMultiClassNonMaxSuppression/map/while/PadOrClipBoxList/stack_5/values_1"
  attr {
    key: "N"
    value {
      i: 2
    }
  }
  attr {
    key: "T"
    value {
      type: DT_INT32
    }
  }
  attr {
    key: "axis"
    value {
      i: 1
    }
  }
}
node {
  name: "Postprocessor/BatchMultiClassNonMaxSuppression/map/while/PadOrClipBoxList/Pad_5"
  op: "Pad"
  input: "Postprocessor/BatchMultiClassNonMaxSuppression/map/while/PadOrClipBoxList/Slice_5"
  input: "Postprocessor/BatchMultiClassNonMaxSuppression/map/while/PadOrClipBoxList/stack_5"
  attr {
    key: "T"
    value {
      type: DT_FLOAT
    }
  }
  attr {
    key: "Tpaddings"
    value {
      type: DT_INT32
    }
  }
}
node {
  name: "Postprocessor/BatchMultiClassNonMaxSuppression/map/while/TensorArrayWrite_2/TensorArrayWriteV3"
  op: "TensorArrayWriteV3"
  input: "Postprocessor/BatchMultiClassNonMaxSuppression/map/while/TensorArrayWrite_2/TensorArrayWriteV3/Enter"
  input: "Postprocessor/BatchMultiClassNonMaxSuppression/map/while/Identity_1"
  input: "Postprocessor/BatchMultiClassNonMaxSuppression/map/while/PadOrClipBoxList/Pad_5"
  input: "Postprocessor/BatchMultiClassNonMaxSuppression/map/while/Identity_4"
  attr {
    key: "T"
    value {
      type: DT_FLOAT
    }
  }
  attr {
    key: "_class"
    value {
      list {
        s: "loc:@Postprocessor/BatchMultiClassNonMaxSuppression/map/while/PadOrClipBoxList/Pad_5"
      }
    }
  }
}
node {
  name: "Postprocessor/BatchMultiClassNonMaxSuppression/map/while/NextIteration_4"
  op: "NextIteration"
  input: "Postprocessor/BatchMultiClassNonMaxSuppression/map/while/TensorArrayWrite_2/TensorArrayWriteV3"
  attr {
    key: "T"
    value {
      type: DT_FLOAT
    }
  }
}
node {
  name: "Postprocessor/BatchMultiClassNonMaxSuppression/map/while/MultiClassNonMaxSuppression/Gather_5/GatherV2_1"
  op: "GatherV2"
  input: "Postprocessor/BatchMultiClassNonMaxSuppression/map/while/MultiClassNonMaxSuppression/Gather_4/GatherV2_1"
  input: "Postprocessor/BatchMultiClassNonMaxSuppression/map/while/MultiClassNonMaxSuppression/range_5"
  input: "Postprocessor/BatchMultiClassNonMaxSuppression/map/while/MultiClassNonMaxSuppression/Gather_5/GatherV2_1/axis"
  attr {
    key: "Taxis"
    value {
      type: DT_INT32
    }
  }
  attr {
    key: "Tindices"
    value {
      type: DT_INT32
    }
  }
  attr {
    key: "Tparams"
    value {
      type: DT_FLOAT
    }
  }
  attr {
    key: "batch_dims"
    value {
      i: 0
    }
  }
}
node {
  name: "Postprocessor/BatchMultiClassNonMaxSuppression/map/while/PadOrClipBoxList/Shape_2"
  op: "Shape"
  input: "Postprocessor/BatchMultiClassNonMaxSuppression/map/while/MultiClassNonMaxSuppression/Gather_5/GatherV2_1"
  attr {
    key: "T"
    value {
      type: DT_FLOAT
    }
  }
  attr {
    key: "out_type"
    value {
      type: DT_INT32
    }
  }
}
node {
  name: "Postprocessor/BatchMultiClassNonMaxSuppression/map/while/PadOrClipBoxList/strided_slice_4"
  op: "StridedSlice"
  input: "Postprocessor/BatchMultiClassNonMaxSuppression/map/while/PadOrClipBoxList/Shape_2"
  input: "Postprocessor/BatchMultiClassNonMaxSuppression/map/while/PadOrClipBoxList/strided_slice_4/stack"
  input: "Postprocessor/BatchMultiClassNonMaxSuppression/map/while/PadOrClipBoxList/strided_slice_4/stack_1"
  input: "Postprocessor/BatchMultiClassNonMaxSuppression/map/while/PadOrClipBoxList/strided_slice_4/stack_2"
  attr {
    key: "Index"
    value {
      type: DT_INT32
    }
  }
  attr {
    key: "T"
    value {
      type: DT_INT32
    }
  }
  attr {
    key: "begin_mask"
    value {
      i: 0
    }
  }
  attr {
    key: "ellipsis_mask"
    value {
      i: 0
    }
  }
  attr {
    key: "end_mask"
    value {
      i: 0
    }
  }
  attr {
    key: "new_axis_mask"
    value {
      i: 0
    }
  }
  attr {
    key: "shrink_axis_mask"
    value {
      i: 1
    }
  }
}
node {
  name: "Postprocessor/BatchMultiClassNonMaxSuppression/map/while/PadOrClipBoxList/sub_4"
  op: "Sub"
  input: "Postprocessor/BatchMultiClassNonMaxSuppression/map/while/PadOrClipBoxList/strided_slice_4"
  input: "Postprocessor/BatchMultiClassNonMaxSuppression/map/while/PadOrClipBoxList/sub_4/y"
  attr {
    key: "T"
    value {
      type: DT_INT32
    }
  }
}
node {
  name: "Postprocessor/BatchMultiClassNonMaxSuppression/map/while/PadOrClipBoxList/Greater_2"
  op: "Greater"
  input: "Postprocessor/BatchMultiClassNonMaxSuppression/map/while/PadOrClipBoxList/sub_4"
  input: "Postprocessor/BatchMultiClassNonMaxSuppression/map/while/PadOrClipBoxList/Greater_2/y"
  attr {
    key: "T"
    value {
      type: DT_INT32
    }
  }
}
node {
  name: "Postprocessor/BatchMultiClassNonMaxSuppression/map/while/PadOrClipBoxList/Select_2"
  op: "Select"
  input: "Postprocessor/BatchMultiClassNonMaxSuppression/map/while/PadOrClipBoxList/Greater_2"
  input: "Postprocessor/BatchMultiClassNonMaxSuppression/map/while/PadOrClipBoxList/Select_2/t"
  input: "Postprocessor/BatchMultiClassNonMaxSuppression/map/while/PadOrClipBoxList/Select_2/e"
  attr {
    key: "T"
    value {
      type: DT_INT32
    }
  }
}
node {
  name: "Postprocessor/BatchMultiClassNonMaxSuppression/map/while/PadOrClipBoxList/Slice_1/size"
  op: "Pack"
  input: "Postprocessor/BatchMultiClassNonMaxSuppression/map/while/PadOrClipBoxList/Select_2"
  attr {
    key: "N"
    value {
      i: 1
    }
  }
  attr {
    key: "T"
    value {
      type: DT_INT32
    }
  }
  attr {
    key: "axis"
    value {
      i: 0
    }
  }
}
node {
  name: "Postprocessor/BatchMultiClassNonMaxSuppression/map/while/PadOrClipBoxList/Slice_1"
  op: "Slice"
  input: "Postprocessor/BatchMultiClassNonMaxSuppression/map/while/MultiClassNonMaxSuppression/Gather_5/GatherV2_1"
  input: "Postprocessor/BatchMultiClassNonMaxSuppression/map/while/PadOrClipBoxList/zeros_2"
  input: "Postprocessor/BatchMultiClassNonMaxSuppression/map/while/PadOrClipBoxList/Slice_1/size"
  attr {
    key: "Index"
    value {
      type: DT_INT32
    }
  }
  attr {
    key: "T"
    value {
      type: DT_FLOAT
    }
  }
}
node {
  name: "Postprocessor/BatchMultiClassNonMaxSuppression/map/while/PadOrClipBoxList/Shape_3"
  op: "Shape"
  input: "Postprocessor/BatchMultiClassNonMaxSuppression/map/while/PadOrClipBoxList/Slice_1"
  attr {
    key: "T"
    value {
      type: DT_FLOAT
    }
  }
  attr {
    key: "out_type"
    value {
      type: DT_INT32
    }
  }
}
node {
  name: "Postprocessor/BatchMultiClassNonMaxSuppression/map/while/PadOrClipBoxList/strided_slice_5"
  op: "StridedSlice"
  input: "Postprocessor/BatchMultiClassNonMaxSuppression/map/while/PadOrClipBoxList/Shape_3"
  input: "Postprocessor/BatchMultiClassNonMaxSuppression/map/while/PadOrClipBoxList/strided_slice_5/stack"
  input: "Postprocessor/BatchMultiClassNonMaxSuppression/map/while/PadOrClipBoxList/strided_slice_5/stack_1"
  input: "Postprocessor/BatchMultiClassNonMaxSuppression/map/while/PadOrClipBoxList/strided_slice_5/stack_2"
  attr {
    key: "Index"
    value {
      type: DT_INT32
    }
  }
  attr {
    key: "T"
    value {
      type: DT_INT32
    }
  }
  attr {
    key: "begin_mask"
    value {
      i: 0
    }
  }
  attr {
    key: "ellipsis_mask"
    value {
      i: 0
    }
  }
  attr {
    key: "end_mask"
    value {
      i: 0
    }
  }
  attr {
    key: "new_axis_mask"
    value {
      i: 0
    }
  }
  attr {
    key: "shrink_axis_mask"
    value {
      i: 1
    }
  }
}
node {
  name: "Postprocessor/BatchMultiClassNonMaxSuppression/map/while/PadOrClipBoxList/sub_5"
  op: "Sub"
  input: "Postprocessor/BatchMultiClassNonMaxSuppression/map/while/PadOrClipBoxList/sub_5/x"
  input: "Postprocessor/BatchMultiClassNonMaxSuppression/map/while/PadOrClipBoxList/strided_slice_5"
  attr {
    key: "T"
    value {
      type: DT_INT32
    }
  }
}
node {
  name: "Postprocessor/BatchMultiClassNonMaxSuppression/map/while/PadOrClipBoxList/stack_1/values_1"
  op: "Pack"
  input: "Postprocessor/BatchMultiClassNonMaxSuppression/map/while/PadOrClipBoxList/sub_5"
  attr {
    key: "N"
    value {
      i: 1
    }
  }
  attr {
    key: "T"
    value {
      type: DT_INT32
    }
  }
  attr {
    key: "axis"
    value {
      i: 0
    }
  }
}
node {
  name: "Postprocessor/BatchMultiClassNonMaxSuppression/map/while/PadOrClipBoxList/stack_1"
  op: "Pack"
  input: "Postprocessor/BatchMultiClassNonMaxSuppression/map/while/PadOrClipBoxList/zeros_3"
  input: "Postprocessor/BatchMultiClassNonMaxSuppression/map/while/PadOrClipBoxList/stack_1/values_1"
  attr {
    key: "N"
    value {
      i: 2
    }
  }
  attr {
    key: "T"
    value {
      type: DT_INT32
    }
  }
  attr {
    key: "axis"
    value {
      i: 1
    }
  }
}
node {
  name: "Postprocessor/BatchMultiClassNonMaxSuppression/map/while/PadOrClipBoxList/Pad_1"
  op: "Pad"
  input: "Postprocessor/BatchMultiClassNonMaxSuppression/map/while/PadOrClipBoxList/Slice_1"
  input: "Postprocessor/BatchMultiClassNonMaxSuppression/map/while/PadOrClipBoxList/stack_1"
  attr {
    key: "T"
    value {
      type: DT_FLOAT
    }
  }
  attr {
    key: "Tpaddings"
    value {
      type: DT_INT32
    }
  }
}
node {
  name: "Postprocessor/BatchMultiClassNonMaxSuppression/map/while/TensorArrayWrite_1/TensorArrayWriteV3"
  op: "TensorArrayWriteV3"
  input: "Postprocessor/BatchMultiClassNonMaxSuppression/map/while/TensorArrayWrite_1/TensorArrayWriteV3/Enter"
  input: "Postprocessor/BatchMultiClassNonMaxSuppression/map/while/Identity_1"
  input: "Postprocessor/BatchMultiClassNonMaxSuppression/map/while/PadOrClipBoxList/Pad_1"
  input: "Postprocessor/BatchMultiClassNonMaxSuppression/map/while/Identity_3"
  attr {
    key: "T"
    value {
      type: DT_FLOAT
    }
  }
  attr {
    key: "_class"
    value {
      list {
        s: "loc:@Postprocessor/BatchMultiClassNonMaxSuppression/map/while/PadOrClipBoxList/Pad_1"
      }
    }
  }
}
node {
  name: "Postprocessor/BatchMultiClassNonMaxSuppression/map/while/NextIteration_3"
  op: "NextIteration"
  input: "Postprocessor/BatchMultiClassNonMaxSuppression/map/while/TensorArrayWrite_1/TensorArrayWriteV3"
  attr {
    key: "T"
    value {
      type: DT_FLOAT
    }
  }
}
node {
  name: "Postprocessor/BatchMultiClassNonMaxSuppression/map/while/MultiClassNonMaxSuppression/Gather/GatherV2_4"
  op: "GatherV2"
  input: "Postprocessor/BatchMultiClassNonMaxSuppression/map/while/Reshape_4"
  input: "Postprocessor/BatchMultiClassNonMaxSuppression/map/while/MultiClassNonMaxSuppression/concat"
  input: "Postprocessor/BatchMultiClassNonMaxSuppression/map/while/MultiClassNonMaxSuppression/Gather/GatherV2_4/axis"
  attr {
    key: "Taxis"
    value {
      type: DT_INT32
    }
  }
  attr {
    key: "Tindices"
    value {
      type: DT_INT32
    }
  }
  attr {
    key: "Tparams"
    value {
      type: DT_FLOAT
    }
  }
  attr {
    key: "batch_dims"
    value {
      i: 0
    }
  }
}
node {
  name: "Postprocessor/BatchMultiClassNonMaxSuppression/map/while/MultiClassNonMaxSuppression/Concatenate/concat_4"
  op: "ConcatV2"
  input: "Postprocessor/BatchMultiClassNonMaxSuppression/map/while/MultiClassNonMaxSuppression/Gather/GatherV2_4"
  input: "Postprocessor/BatchMultiClassNonMaxSuppression/map/while/MultiClassNonMaxSuppression/Gather_1/GatherV2_4"
  input: "Postprocessor/BatchMultiClassNonMaxSuppression/map/while/MultiClassNonMaxSuppression/Gather_2/GatherV2_4"
  input: "Postprocessor/BatchMultiClassNonMaxSuppression/map/while/MultiClassNonMaxSuppression/Gather_3/GatherV2_4"
  input: "Postprocessor/BatchMultiClassNonMaxSuppression/map/while/MultiClassNonMaxSuppression/Concatenate/concat_4/axis"
  attr {
    key: "N"
    value {
      i: 4
    }
  }
  attr {
    key: "T"
    value {
      type: DT_FLOAT
    }
  }
  attr {
    key: "Tidx"
    value {
      type: DT_INT32
    }
  }
}
node {
  name: "Postprocessor/BatchMultiClassNonMaxSuppression/map/while/MultiClassNonMaxSuppression/SortByField/Gather/GatherV2_4"
  op: "GatherV2"
  input: "Postprocessor/BatchMultiClassNonMaxSuppression/map/while/MultiClassNonMaxSuppression/Concatenate/concat_4"
  input: "Postprocessor/BatchMultiClassNonMaxSuppression/map/while/MultiClassNonMaxSuppression/SortByField/TopKV2:1"
  input: "Postprocessor/BatchMultiClassNonMaxSuppression/map/while/MultiClassNonMaxSuppression/SortByField/Gather/GatherV2_4/axis"
  attr {
    key: "Taxis"
    value {
      type: DT_INT32
    }
  }
  attr {
    key: "Tindices"
    value {
      type: DT_INT32
    }
  }
  attr {
    key: "Tparams"
    value {
      type: DT_FLOAT
    }
  }
  attr {
    key: "batch_dims"
    value {
      i: 0
    }
  }
}
node {
  name: "Postprocessor/BatchMultiClassNonMaxSuppression/map/while/MultiClassNonMaxSuppression/ClipToWindow/Gather/GatherV2_4"
  op: "GatherV2"
  input: "Postprocessor/BatchMultiClassNonMaxSuppression/map/while/MultiClassNonMaxSuppression/SortByField/Gather/GatherV2_4"
  input: "Postprocessor/BatchMultiClassNonMaxSuppression/map/while/MultiClassNonMaxSuppression/ClipToWindow/Cast"
  input: "Postprocessor/BatchMultiClassNonMaxSuppression/map/while/MultiClassNonMaxSuppression/ClipToWindow/Gather/GatherV2_4/axis"
  attr {
    key: "Taxis"
    value {
      type: DT_INT32
    }
  }
  attr {
    key: "Tindices"
    value {
      type: DT_INT32
    }
  }
  attr {
    key: "Tparams"
    value {
      type: DT_FLOAT
    }
  }
  attr {
    key: "batch_dims"
    value {
      i: 0
    }
  }
}
node {
  name: "Postprocessor/BatchMultiClassNonMaxSuppression/map/while/MultiClassNonMaxSuppression/SortByField_1/Gather/GatherV2_4"
  op: "GatherV2"
  input: "Postprocessor/BatchMultiClassNonMaxSuppression/map/while/MultiClassNonMaxSuppression/ClipToWindow/Gather/GatherV2_4"
  input: "Postprocessor/BatchMultiClassNonMaxSuppression/map/while/MultiClassNonMaxSuppression/SortByField_1/TopKV2:1"
  input: "Postprocessor/BatchMultiClassNonMaxSuppression/map/while/MultiClassNonMaxSuppression/SortByField_1/Gather/GatherV2_4/axis"
  attr {
    key: "Taxis"
    value {
      type: DT_INT32
    }
  }
  attr {
    key: "Tindices"
    value {
      type: DT_INT32
    }
  }
  attr {
    key: "Tparams"
    value {
      type: DT_FLOAT
    }
  }
  attr {
    key: "batch_dims"
    value {
      i: 0
    }
  }
}
node {
  name: "Postprocessor/BatchMultiClassNonMaxSuppression/map/while/MultiClassNonMaxSuppression/Gather_4/GatherV2_4"
  op: "GatherV2"
  input: "Postprocessor/BatchMultiClassNonMaxSuppression/map/while/MultiClassNonMaxSuppression/SortByField_1/Gather/GatherV2_4"
  input: "Postprocessor/BatchMultiClassNonMaxSuppression/map/while/MultiClassNonMaxSuppression/range_4"
  input: "Postprocessor/BatchMultiClassNonMaxSuppression/map/while/MultiClassNonMaxSuppression/Gather_4/GatherV2_4/axis"
  attr {
    key: "Taxis"
    value {
      type: DT_INT32
    }
  }
  attr {
    key: "Tindices"
    value {
      type: DT_INT32
    }
  }
  attr {
    key: "Tparams"
    value {
      type: DT_FLOAT
    }
  }
  attr {
    key: "batch_dims"
    value {
      i: 0
    }
  }
}
node {
  name: "Postprocessor/BatchMultiClassNonMaxSuppression/map/while/MultiClassNonMaxSuppression/Gather_5/GatherV2_4"
  op: "GatherV2"
  input: "Postprocessor/BatchMultiClassNonMaxSuppression/map/while/MultiClassNonMaxSuppression/Gather_4/GatherV2_4"
  input: "Postprocessor/BatchMultiClassNonMaxSuppression/map/while/MultiClassNonMaxSuppression/range_5"
  input: "Postprocessor/BatchMultiClassNonMaxSuppression/map/while/MultiClassNonMaxSuppression/Gather_5/GatherV2_4/axis"
  attr {
    key: "Taxis"
    value {
      type: DT_INT32
    }
  }
  attr {
    key: "Tindices"
    value {
      type: DT_INT32
    }
  }
  attr {
    key: "Tparams"
    value {
      type: DT_FLOAT
    }
  }
  attr {
    key: "batch_dims"
    value {
      i: 0
    }
  }
}
node {
  name: "Postprocessor/BatchMultiClassNonMaxSuppression/map/while/PadOrClipBoxList/Shape_8"
  op: "Shape"
  input: "Postprocessor/BatchMultiClassNonMaxSuppression/map/while/MultiClassNonMaxSuppression/Gather_5/GatherV2_4"
  attr {
    key: "T"
    value {
      type: DT_FLOAT
    }
  }
  attr {
    key: "out_type"
    value {
      type: DT_INT32
    }
  }
}
node {
  name: "Postprocessor/BatchMultiClassNonMaxSuppression/map/while/PadOrClipBoxList/strided_slice_15"
  op: "StridedSlice"
  input: "Postprocessor/BatchMultiClassNonMaxSuppression/map/while/PadOrClipBoxList/Shape_8"
  input: "Postprocessor/BatchMultiClassNonMaxSuppression/map/while/PadOrClipBoxList/strided_slice_15/stack"
  input: "Postprocessor/BatchMultiClassNonMaxSuppression/map/while/PadOrClipBoxList/strided_slice_15/stack_1"
  input: "Postprocessor/BatchMultiClassNonMaxSuppression/map/while/PadOrClipBoxList/strided_slice_15/stack_2"
  attr {
    key: "Index"
    value {
      type: DT_INT32
    }
  }
  attr {
    key: "T"
    value {
      type: DT_INT32
    }
  }
  attr {
    key: "begin_mask"
    value {
      i: 0
    }
  }
  attr {
    key: "ellipsis_mask"
    value {
      i: 0
    }
  }
  attr {
    key: "end_mask"
    value {
      i: 0
    }
  }
  attr {
    key: "new_axis_mask"
    value {
      i: 0
    }
  }
  attr {
    key: "shrink_axis_mask"
    value {
      i: 1
    }
  }
}
node {
  name: "Postprocessor/BatchMultiClassNonMaxSuppression/map/while/PadOrClipBoxList/sub_15"
  op: "Sub"
  input: "Postprocessor/BatchMultiClassNonMaxSuppression/map/while/PadOrClipBoxList/strided_slice_15"
  input: "Postprocessor/BatchMultiClassNonMaxSuppression/map/while/PadOrClipBoxList/sub_15/y"
  attr {
    key: "T"
    value {
      type: DT_INT32
    }
  }
}
node {
  name: "Postprocessor/BatchMultiClassNonMaxSuppression/map/while/PadOrClipBoxList/Greater_8"
  op: "Greater"
  input: "Postprocessor/BatchMultiClassNonMaxSuppression/map/while/PadOrClipBoxList/sub_15"
  input: "Postprocessor/BatchMultiClassNonMaxSuppression/map/while/PadOrClipBoxList/Greater_8/y"
  attr {
    key: "T"
    value {
      type: DT_INT32
    }
  }
}
node {
  name: "Postprocessor/BatchMultiClassNonMaxSuppression/map/while/PadOrClipBoxList/Select_8"
  op: "Select"
  input: "Postprocessor/BatchMultiClassNonMaxSuppression/map/while/PadOrClipBoxList/Greater_8"
  input: "Postprocessor/BatchMultiClassNonMaxSuppression/map/while/PadOrClipBoxList/Select_8/t"
  input: "Postprocessor/BatchMultiClassNonMaxSuppression/map/while/PadOrClipBoxList/Select_8/e"
  attr {
    key: "T"
    value {
      type: DT_INT32
    }
  }
}
node {
  name: "Postprocessor/BatchMultiClassNonMaxSuppression/map/while/PadOrClipBoxList/strided_slice_14"
  op: "StridedSlice"
  input: "Postprocessor/BatchMultiClassNonMaxSuppression/map/while/PadOrClipBoxList/Shape_8"
  input: "Postprocessor/BatchMultiClassNonMaxSuppression/map/while/PadOrClipBoxList/strided_slice_14/stack"
  input: "Postprocessor/BatchMultiClassNonMaxSuppression/map/while/PadOrClipBoxList/strided_slice_14/stack_1"
  input: "Postprocessor/BatchMultiClassNonMaxSuppression/map/while/PadOrClipBoxList/strided_slice_14/stack_2"
  attr {
    key: "Index"
    value {
      type: DT_INT32
    }
  }
  attr {
    key: "T"
    value {
      type: DT_INT32
    }
  }
  attr {
    key: "begin_mask"
    value {
      i: 0
    }
  }
  attr {
    key: "ellipsis_mask"
    value {
      i: 0
    }
  }
  attr {
    key: "end_mask"
    value {
      i: 0
    }
  }
  attr {
    key: "new_axis_mask"
    value {
      i: 0
    }
  }
  attr {
    key: "shrink_axis_mask"
    value {
      i: 1
    }
  }
}
node {
  name: "Postprocessor/BatchMultiClassNonMaxSuppression/map/while/PadOrClipBoxList/sub_14"
  op: "Sub"
  input: "Postprocessor/BatchMultiClassNonMaxSuppression/map/while/PadOrClipBoxList/strided_slice_14"
  input: "Postprocessor/BatchMultiClassNonMaxSuppression/map/while/PadOrClipBoxList/sub_14/y"
  attr {
    key: "T"
    value {
      type: DT_INT32
    }
  }
}
node {
  name: "Postprocessor/BatchMultiClassNonMaxSuppression/map/while/PadOrClipBoxList/Greater_7"
  op: "Greater"
  input: "Postprocessor/BatchMultiClassNonMaxSuppression/map/while/PadOrClipBoxList/sub_14"
  input: "Postprocessor/BatchMultiClassNonMaxSuppression/map/while/PadOrClipBoxList/Greater_7/y"
  attr {
    key: "T"
    value {
      type: DT_INT32
    }
  }
}
node {
  name: "Postprocessor/BatchMultiClassNonMaxSuppression/map/while/PadOrClipBoxList/Select_7"
  op: "Select"
  input: "Postprocessor/BatchMultiClassNonMaxSuppression/map/while/PadOrClipBoxList/Greater_7"
  input: "Postprocessor/BatchMultiClassNonMaxSuppression/map/while/PadOrClipBoxList/Select_7/t"
  input: "Postprocessor/BatchMultiClassNonMaxSuppression/map/while/PadOrClipBoxList/Select_7/e"
  attr {
    key: "T"
    value {
      type: DT_INT32
    }
  }
}
node {
  name: "Postprocessor/BatchMultiClassNonMaxSuppression/map/while/PadOrClipBoxList/Slice_4/size"
  op: "Pack"
  input: "Postprocessor/BatchMultiClassNonMaxSuppression/map/while/PadOrClipBoxList/Select_7"
  input: "Postprocessor/BatchMultiClassNonMaxSuppression/map/while/PadOrClipBoxList/Select_8"
  attr {
    key: "N"
    value {
      i: 2
    }
  }
  attr {
    key: "T"
    value {
      type: DT_INT32
    }
  }
  attr {
    key: "axis"
    value {
      i: 0
    }
  }
}
node {
  name: "Postprocessor/BatchMultiClassNonMaxSuppression/map/while/PadOrClipBoxList/Slice_4"
  op: "Slice"
  input: "Postprocessor/BatchMultiClassNonMaxSuppression/map/while/MultiClassNonMaxSuppression/Gather_5/GatherV2_4"
  input: "Postprocessor/BatchMultiClassNonMaxSuppression/map/while/PadOrClipBoxList/zeros_8"
  input: "Postprocessor/BatchMultiClassNonMaxSuppression/map/while/PadOrClipBoxList/Slice_4/size"
  attr {
    key: "Index"
    value {
      type: DT_INT32
    }
  }
  attr {
    key: "T"
    value {
      type: DT_FLOAT
    }
  }
}
node {
  name: "Postprocessor/BatchMultiClassNonMaxSuppression/map/while/PadOrClipBoxList/Shape_9"
  op: "Shape"
  input: "Postprocessor/BatchMultiClassNonMaxSuppression/map/while/PadOrClipBoxList/Slice_4"
  attr {
    key: "T"
    value {
      type: DT_FLOAT
    }
  }
  attr {
    key: "out_type"
    value {
      type: DT_INT32
    }
  }
}
node {
  name: "Postprocessor/BatchMultiClassNonMaxSuppression/map/while/PadOrClipBoxList/strided_slice_17"
  op: "StridedSlice"
  input: "Postprocessor/BatchMultiClassNonMaxSuppression/map/while/PadOrClipBoxList/Shape_9"
  input: "Postprocessor/BatchMultiClassNonMaxSuppression/map/while/PadOrClipBoxList/strided_slice_17/stack"
  input: "Postprocessor/BatchMultiClassNonMaxSuppression/map/while/PadOrClipBoxList/strided_slice_17/stack_1"
  input: "Postprocessor/BatchMultiClassNonMaxSuppression/map/while/PadOrClipBoxList/strided_slice_17/stack_2"
  attr {
    key: "Index"
    value {
      type: DT_INT32
    }
  }
  attr {
    key: "T"
    value {
      type: DT_INT32
    }
  }
  attr {
    key: "begin_mask"
    value {
      i: 0
    }
  }
  attr {
    key: "ellipsis_mask"
    value {
      i: 0
    }
  }
  attr {
    key: "end_mask"
    value {
      i: 0
    }
  }
  attr {
    key: "new_axis_mask"
    value {
      i: 0
    }
  }
  attr {
    key: "shrink_axis_mask"
    value {
      i: 1
    }
  }
}
node {
  name: "Postprocessor/BatchMultiClassNonMaxSuppression/map/while/PadOrClipBoxList/sub_17"
  op: "Sub"
  input: "Postprocessor/BatchMultiClassNonMaxSuppression/map/while/PadOrClipBoxList/sub_17/x"
  input: "Postprocessor/BatchMultiClassNonMaxSuppression/map/while/PadOrClipBoxList/strided_slice_17"
  attr {
    key: "T"
    value {
      type: DT_INT32
    }
  }
}
node {
  name: "Postprocessor/BatchMultiClassNonMaxSuppression/map/while/PadOrClipBoxList/strided_slice_16"
  op: "StridedSlice"
  input: "Postprocessor/BatchMultiClassNonMaxSuppression/map/while/PadOrClipBoxList/Shape_9"
  input: "Postprocessor/BatchMultiClassNonMaxSuppression/map/while/PadOrClipBoxList/strided_slice_16/stack"
  input: "Postprocessor/BatchMultiClassNonMaxSuppression/map/while/PadOrClipBoxList/strided_slice_16/stack_1"
  input: "Postprocessor/BatchMultiClassNonMaxSuppression/map/while/PadOrClipBoxList/strided_slice_16/stack_2"
  attr {
    key: "Index"
    value {
      type: DT_INT32
    }
  }
  attr {
    key: "T"
    value {
      type: DT_INT32
    }
  }
  attr {
    key: "begin_mask"
    value {
      i: 0
    }
  }
  attr {
    key: "ellipsis_mask"
    value {
      i: 0
    }
  }
  attr {
    key: "end_mask"
    value {
      i: 0
    }
  }
  attr {
    key: "new_axis_mask"
    value {
      i: 0
    }
  }
  attr {
    key: "shrink_axis_mask"
    value {
      i: 1
    }
  }
}
node {
  name: "Postprocessor/BatchMultiClassNonMaxSuppression/map/while/PadOrClipBoxList/sub_16"
  op: "Sub"
  input: "Postprocessor/BatchMultiClassNonMaxSuppression/map/while/PadOrClipBoxList/sub_16/x"
  input: "Postprocessor/BatchMultiClassNonMaxSuppression/map/while/PadOrClipBoxList/strided_slice_16"
  attr {
    key: "T"
    value {
      type: DT_INT32
    }
  }
}
node {
  name: "Postprocessor/BatchMultiClassNonMaxSuppression/map/while/PadOrClipBoxList/stack_4/values_1"
  op: "Pack"
  input: "Postprocessor/BatchMultiClassNonMaxSuppression/map/while/PadOrClipBoxList/sub_16"
  input: "Postprocessor/BatchMultiClassNonMaxSuppression/map/while/PadOrClipBoxList/sub_17"
  attr {
    key: "N"
    value {
      i: 2
    }
  }
  attr {
    key: "T"
    value {
      type: DT_INT32
    }
  }
  attr {
    key: "axis"
    value {
      i: 0
    }
  }
}
node {
  name: "Postprocessor/BatchMultiClassNonMaxSuppression/map/while/PadOrClipBoxList/stack_4"
  op: "Pack"
  input: "Postprocessor/BatchMultiClassNonMaxSuppression/map/while/PadOrClipBoxList/zeros_9"
  input: "Postprocessor/BatchMultiClassNonMaxSuppression/map/while/PadOrClipBoxList/stack_4/values_1"
  attr {
    key: "N"
    value {
      i: 2
    }
  }
  attr {
    key: "T"
    value {
      type: DT_INT32
    }
  }
  attr {
    key: "axis"
    value {
      i: 1
    }
  }
}
node {
  name: "Postprocessor/BatchMultiClassNonMaxSuppression/map/while/PadOrClipBoxList/Pad_4"
  op: "Pad"
  input: "Postprocessor/BatchMultiClassNonMaxSuppression/map/while/PadOrClipBoxList/Slice_4"
  input: "Postprocessor/BatchMultiClassNonMaxSuppression/map/while/PadOrClipBoxList/stack_4"
  attr {
    key: "T"
    value {
      type: DT_FLOAT
    }
  }
  attr {
    key: "Tpaddings"
    value {
      type: DT_INT32
    }
  }
}
node {
  name: "Postprocessor/BatchMultiClassNonMaxSuppression/map/while/TensorArrayWrite_5/TensorArrayWriteV3"
  op: "TensorArrayWriteV3"
  input: "Postprocessor/BatchMultiClassNonMaxSuppression/map/while/TensorArrayWrite_5/TensorArrayWriteV3/Enter"
  input: "Postprocessor/BatchMultiClassNonMaxSuppression/map/while/Identity_1"
  input: "Postprocessor/BatchMultiClassNonMaxSuppression/map/while/PadOrClipBoxList/Pad_4"
  input: "Postprocessor/BatchMultiClassNonMaxSuppression/map/while/Identity_7"
  attr {
    key: "T"
    value {
      type: DT_FLOAT
    }
  }
  attr {
    key: "_class"
    value {
      list {
        s: "loc:@Postprocessor/BatchMultiClassNonMaxSuppression/map/while/PadOrClipBoxList/Pad_4"
      }
    }
  }
}
node {
  name: "Postprocessor/BatchMultiClassNonMaxSuppression/map/while/NextIteration_7"
  op: "NextIteration"
  input: "Postprocessor/BatchMultiClassNonMaxSuppression/map/while/TensorArrayWrite_5/TensorArrayWriteV3"
  attr {
    key: "T"
    value {
      type: DT_FLOAT
    }
  }
}
node {
  name: "Preprocessor/map/while/Identity_2"
  op: "Identity"
  input: "Preprocessor/map/while/Switch_2:1"
  attr {
    key: "T"
    value {
      type: DT_FLOAT
    }
  }
}
node {
  name: "Preprocessor/map/TensorArray"
  op: "TensorArrayV3"
  input: "Preprocessor/map/strided_slice"
  attr {
    key: "clear_after_read"
    value {
      b: true
    }
  }
  attr {
    key: "dtype"
    value {
      type: DT_FLOAT
    }
  }
  attr {
    key: "dynamic_size"
    value {
      b: false
    }
  }
  attr {
    key: "element_shape"
    value {
      shape {
        unknown_rank: true
      }
    }
  }
  attr {
    key: "identical_element_shapes"
    value {
      b: true
    }
  }
  attr {
    key: "tensor_array_name"
    value {
      s: ""
    }
  }
}
node {
  name: "Preprocessor/map/while/TensorArrayReadV3/Enter"
  op: "Enter"
  input: "Preprocessor/map/TensorArray"
  attr {
    key: "T"
    value {
      type: 20
    }
  }
  attr {
    key: "frame_name"
    value {
      s: "Preprocessor/map/while/while_context"
    }
  }
  attr {
    key: "is_constant"
    value {
      b: true
    }
  }
  attr {
    key: "parallel_iterations"
    value {
      i: 32
    }
  }
}
node {
  name: "Preprocessor/map/TensorArrayUnstack/TensorArrayScatter/TensorArrayScatterV3"
  op: "TensorArrayScatterV3"
  input: "Preprocessor/map/TensorArray"
  input: "Preprocessor/map/TensorArrayUnstack/range"
  input: "Cast"
  input: "Preprocessor/map/TensorArray:1"
  attr {
    key: "T"
    value {
      type: DT_FLOAT
    }
  }
  attr {
    key: "_class"
    value {
      list {
        s: "loc:@Cast"
      }
    }
  }
}
node {
  name: "Preprocessor/map/while/TensorArrayReadV3/Enter_1"
  op: "Enter"
  input: "Preprocessor/map/TensorArrayUnstack/TensorArrayScatter/TensorArrayScatterV3"
  attr {
    key: "T"
    value {
      type: DT_FLOAT
    }
  }
  attr {
    key: "frame_name"
    value {
      s: "Preprocessor/map/while/while_context"
    }
  }
  attr {
    key: "is_constant"
    value {
      b: true
    }
  }
  attr {
    key: "parallel_iterations"
    value {
      i: 32
    }
  }
}
node {
  name: "Preprocessor/map/while/TensorArrayReadV3"
  op: "TensorArrayReadV3"
  input: "Preprocessor/map/while/TensorArrayReadV3/Enter"
  input: "Preprocessor/map/while/Identity_1"
  input: "Preprocessor/map/while/TensorArrayReadV3/Enter_1"
  attr {
    key: "dtype"
    value {
      type: DT_FLOAT
    }
  }
}
node {
  name: "Preprocessor/map/while/ResizeImage/resize/ExpandDims"
  op: "ExpandDims"
  input: "Preprocessor/map/while/TensorArrayReadV3"
  input: "Preprocessor/map/while/ResizeImage/resize/ExpandDims/dim"
  attr {
    key: "T"
    value {
      type: DT_FLOAT
    }
  }
  attr {
    key: "Tdim"
    value {
      type: DT_INT32
    }
  }
}
node {
  name: "Preprocessor/map/while/ResizeImage/resize/ResizeBilinear"
  op: "ResizeBilinear"
  input: "Preprocessor/map/while/ResizeImage/resize/ExpandDims"
  input: "Preprocessor/map/while/ResizeImage/stack"
  attr {
    key: "T"
    value {
      type: DT_FLOAT
    }
  }
  attr {
    key: "align_corners"
    value {
      b: false
    }
  }
  attr {
    key: "half_pixel_centers"
    value {
      b: false
    }
  }
}
node {
  name: "Preprocessor/map/while/ResizeImage/resize/Squeeze"
  op: "Squeeze"
  input: "Preprocessor/map/while/ResizeImage/resize/ResizeBilinear"
  attr {
    key: "T"
    value {
      type: DT_FLOAT
    }
  }
  attr {
    key: "squeeze_dims"
    value {
      list {
        i: 0
      }
    }
  }
}
node {
  name: "Preprocessor/map/while/TensorArrayWrite/TensorArrayWriteV3"
  op: "TensorArrayWriteV3"
  input: "Preprocessor/map/while/TensorArrayWrite/TensorArrayWriteV3/Enter"
  input: "Preprocessor/map/while/Identity_1"
  input: "Preprocessor/map/while/ResizeImage/resize/Squeeze"
  input: "Preprocessor/map/while/Identity_2"
  attr {
    key: "T"
    value {
      type: DT_FLOAT
    }
  }
  attr {
    key: "_class"
    value {
      list {
        s: "loc:@Preprocessor/map/while/ResizeImage/resize/Squeeze"
      }
    }
  }
}
node {
  name: "Preprocessor/map/while/NextIteration_2"
  op: "NextIteration"
  input: "Preprocessor/map/while/TensorArrayWrite/TensorArrayWriteV3"
  attr {
    key: "T"
    value {
      type: DT_FLOAT
    }
  }
}
library {
}
